epoch300 for 扩增后579 数据.pth (torch, 70686 bytes, 25 tensors)

fc1.weight f4 [128, 27]
00000000: 513a ad3c 0cc1 d83c a2e4 27bc fde5 c9bd
00000010: c7da 103d f07d 88bd c4cd 78bd 81ff 1d3e
00000020: c54a e03c e488 1939 e381 653e 05ff d43d
00000030: 5f80 f8bd e10a 023e 3a17 29be 3ec5 a83d
00000040: bfba 9bbd 52a2 3ebe 1fae 32bd 60c4 113e
00000050: 64ee da3d 84c8 5b3d 561e df3d f9cd 183d
00000060: 7194 fbbb 244c 2d3d 2056 623e d56d 23bc
00000070: 4e9b 54bd 717c 3b3b 7978 54be cb90 22be
00000080: 7d17 9abd 49f3 0bbe 1ac5 eebc 1c53 df3d
00000090: 3bce ee3d e826 ac3d f333 32be 18ab e33d
000000a0: c905 2d3d 6400 07be bbc7 233e fe79 923d
000000b0: 94af 4cbe 7f09 4f3e 5182 fbbd ce46 01bc
000000c0: 5596 a7bb e001 86bd 389e f73d ad24 993d
000000d0: 9656 e13d b3d4 02be 6c94 8b3d 860e f8bb
000000e0: c1bb dbbd 4bb3 08be fbd2 42be 6b79 15bd
000000f0: 42d5 0ebe f343 02be b42f 80bd 7e8f 593e
00000100: 11bd cdbc d7a1 043d 17af 3abe 171c a2bd
00000110: 1222 c43d 1977 ed3d c705 d1bd 63f5 6cbd
00000120: 09a0 22bd 6c00 0abe fc2f 0f3a 2fad 293e
00000130: 785d 6abe f3be a9bd 592f 91bd f44e 48bd
00000140: 02c6 603d c9ba bc3d 7257 b43d b706 00bd
00000150: 2e71 f5bc 2c5a d93d 37cb 983c dd0d 60be
00000160: 58c8 9a3d 3031 063e c59a 533c 7b36 5c3e
00000170: ea3e 60be 386e 46be 9c70 c43d da23 123e
00000180: 6e86 f6bd da7c 9cbd 89f2 0f3d a650 a7bd
00000190: 940a fdbc d912 34be d6fa 49be 84af 503e
000001a0: d7ae 6fbd 0bdc f6bd b118 2bbe bcf8 3c3e
000001b0: 4a6b b1bc 1f81 6cbd 7d42 1a3d ebd5 2e3e
000001c0: 0dc5 c9bd db95 66bd 6186 293e fa87 97bb
000001d0: b56b 6f3d 74d9 d93c 7b08 39bd 00bc 1c3e
000001e0: 1b8f 6b3d b646 ae3d 8a11 943d c49f ff3c
000001f0: a83c 973d b6a1 3d3d d141 5c3c c6d8 f7bd
00000200: 1610 0b3d 7bdb a3be ab7e 07bd 157d 67be
00000210: ddad 99bd 93b7 98bd 6f1a a33d d23b 66be
00000220: b73b 3b3e fab2 013e a463 39be 64ff acbd
00000230: 323c 7fbd a575 a4bd 7572 963d 0b8f 1cbe
00000240: 9513 b5bd 6e0a e03d 8359 6dbd d683 e63d
00000250: 49a2 523e 2164 e8bd cf5d cfbd 9b68 54be
00000260: dcc7 b93d 5a88 0c3e 4b64 ad3c 51ab d9bd
00000270: 3bd6 c0bd 0f4d b0bc 28f4 0bbe 9178 5a3d
00000280: 4b8e 92bd 0480 c8ba eea2 0e3e 28b2 cbbd
00000290: dbb0 463e 2dd3 05be cd38 fb3d 5b2f 09be
000002a0: a6ef 093c 9de2 39be 91e2 50be 2d76 0dbe
000002b0: b3ae 1fbe 0c38 36be 4783 323e effe 37bd
000002c0: eb6e 18be 17f5 91bd 87a4 103e 7eb8 843c
000002d0: 16ad 3e3e 8e7f e8bc 89ec c13d aca8 e9bd
000002e0: 6282 f43d 76ea ccbc 871e c93d 9b47 fa3d
000002f0: 1fcc eb3c bc70 dbbd 7612 d33d 025b 853d
00000300: 0d12 173e 88b3 37bd b4da 2d3e ff05 e1bd
00000310: 6d6a 493e 149e ea3c b7cb b6bd 50ee 3e3e
00000320: e2db 72bc cf40 d43d 1a54 23be 8a05 153e
00000330: 6b0f 4cbe d301 57bd ba2d 04be e9e0 8a3d
00000340: 1e38 03be fae2 5c3e efcf f2bc 8619 88bd
00000350: 05e5 bdbd d9fb 00be 505e 7e3b de18 3cbd
00000360: c246 3b3e b299 38bd 5d89 6a3c 56b9 003e
00000370: 5950 2f3c 7a87 5d3d eab7 cfbc 9347 393d
00000380: 9aaf 0c3e e805 323e e499 ad3d 2853 26be
00000390: c16e ecbd b4c1 c4bd 0c50 5dbc d93c 9bbd
000003a0: def9 68be 9c98 bbbd 1fc7 d7bc ce14 c03d
000003b0: 1244 b8bd 4649 ddbb 4d0b 103e 9f8b d73c
000003c0: ddac 53be bfed 50be bd76 1d3d 38f2 18be
000003d0: 9b90 ba3d 8387 25be 8217 163e 598a 693d
000003e0: b81c 35bd d4c2 cb3d bb2d 40be 6e62 893d
000003f0: 09ed 14bd ff41 d83d 7248 eabd 96ee 85be
0.021145971 0.02645924 -0.010247381 -0.0985832 0.035364892 -0.06664646 -0.06074311 0.15429498
0.027379403 0.00014642213 0.22412829 0.104002036 -0.1213386 0.12699462 -0.16512766 0.08240746
-0.07603978 -0.18616608 -0.043623086 0.14235067 0.10690001 0.053658023 0.10894458 0.037305806
-0.0076776077 0.04230894 0.22103167 -0.009974916 -0.051905923 0.0028608108 -0.20749082 -0.15875547
-0.07524011 -0.13667025 -0.02914672 0.10904524 0.11660429 0.08405858 -0.1740263 0.11116618
0.042241845 -0.13183743 0.1599416 0.071521744 -0.19988853 0.20218466 -0.12280715 -0.007890416
-0.0051143565 -0.065433264 0.12090725 0.074776985 0.11002843 -0.12776451 0.068154186 -0.0075700907
-0.107291706 -0.13349645 -0.19025795 -0.036492746 -0.13948539 -0.12721233 -0.06259099 0.21246144
-0.025114568 0.032380905 -0.18230854 -0.07915514 0.09576811 0.11594982 -0.1020618 -0.057851207
-0.039703403 -0.13476723 0.00054621673 0.1656997 -0.22887218 -0.08288374 -0.07089109 -0.04890342
0.054876335 0.09215314 0.08805741 -0.031256404 -0.029961195 0.10612902 0.018651588 -0.21880288
0.07557744 0.13104701 0.012915318 0.21505158 -0.21899 -0.19377983 0.09591791 0.14271489
-0.12037359 -0.07641001 0.03514341 -0.08169679 -0.030888833 -0.17585315 -0.19724593 0.20379454
-0.05851635 -0.120536886 -0.16708638 0.1845426 -0.021657605 -0.057740327 0.037661064 0.1707379
-0.098520376 -0.056295257 0.16555168 -0.004624364 0.058452327 0.026592948 -0.045174103 0.15306091
0.057509523 0.08509581 0.07229908 0.031204112 0.07384616 0.046296798 0.013443426 -0.12101893
0.033950888 -0.32003388 -0.033079784 -0.22606309 -0.07503865 -0.07456889 0.07964026 -0.22483757
0.18284498 0.1266593 -0.18104416 -0.084471494 -0.062313266 -0.080302514 0.0734605 -0.15288942
-0.088416256 0.10939489 -0.057946693 0.112556145 0.2056972 -0.11347223 -0.101253144 -0.20743029
0.09071323 0.13723889 0.021165987 -0.10628379 -0.09415861 -0.02152112 -0.13667357 0.053337637
-0.071560465 -0.0015296941 0.1392934 -0.0994609 0.19403403 -0.13068838 0.12266693 -0.13396971
0.008418953 -0.18152852 -0.20398928 -0.13814612 -0.15593986 -0.17794818 0.17432891 -0.044920858
-0.14886062 -0.07126825 0.14125262 0.016201254 0.18620715 -0.028381135 0.094689436 -0.11409125
0.11938931 -0.025014143 0.09820276 0.12220689 0.028783856 -0.10714862 0.103062555 0.06511499
0.1475298 -0.04484895 0.1697796 -0.10987472 0.19669504 0.02863983 -0.08925574 0.18645597
-0.014822932 0.10363924 -0.15950051 0.14552894 -0.19927756 -0.052491974 -0.12908068 0.067811795
-0.12814376 0.2157096 -0.029640166 -0.06645493 -0.09272198 -0.12596072 0.003881354 -0.045922153
0.1828871 -0.04506845 0.0143149765 0.125707 0.010700309 0.05408428 -0.025356252 0.045234274
0.13738862 0.17385066 0.08476618 -0.16242659 -0.11544562 -0.096072584 -0.013507854 -0.07579965
-0.22751567 -0.09159967 -0.026340066 0.09378968 -0.089973584 -0.0067531196 0.14066811 0.026311694
-0.20671411 -0.20403193 0.038443316 -0.14936149 0.091096126 -0.16164975 0.14657405 0.057016704
-0.04421684 0.0994927 -0.18767445 0.06708227 -0.036358867 0.10559463 -0.11439599 -0.2615859

fc1.bias f4 [128]
00000000: 6ad8 21bd 7723 3fbe 2d77 823c 0760 0abe
00000010: 2d7e d03d 5410 123e a8fa afbd dd94 43bc
00000020: 1dc7 34bd 706c 373e a5d4 083e 1f42 7ebd
00000030: 8545 82bd c2ec 22be f6a8 f5bd e22d ffbd
00000040: d72a 253e f4eb 3bbe 1a93 183c a980 103e
00000050: 53a0 8ebc 34f7 9c3d 0c43 173e 7f2f e83d
00000060: 5624 1f3e d18d a33d 7c84 03be 44f8 0fbe
00000070: 31f8 083e 7300 003e da4e e1bd 6111 ddbc
00000080: 9b3f 1b3d 5555 f43d 88a8 b1bc 5abc b9bd
00000090: 079b fd3d 02f4 d6bc 1ce2 21bd 1190 c73d
000000a0: 8f30 e43d dab7 33bd 6eb9 9a3d 37e0 6d3e
000000b0: 8fd0 44bd ce1c 8fbd ae08 3bbe 0012 00be
000000c0: 7b5a f2bd 4e04 193e 9c77 793d 320b f73c
000000d0: 1ce8 0c3e 08df ed3d 1310 033e 167e 273e
000000e0: 04da 14bd 8f8d 163e 5707 3a3d ec16 083e
000000f0: 404a eebd 1d35 bd3d a5fb 19be 9b8e 6a3c
00000100: 156a 72be 7cd7 4cbd 5a44 f9bc 6a04 1bbe
00000110: 4dc2 57bc 7576 da3d c491 a33d f107 f2bd
00000120: 8208 d73d 0d56 fb3d bd2b 3f3e 7f97 063e
00000130: 87da 5ebe 6c28 cf3d 5d73 15be af6a 113d
00000140: 7066 f33d a934 b43d 36aa 32be 3fe9 40bc
00000150: 41f6 25be 34b7 043e 93c4 07be d60f d0bd
00000160: 1344 2bbe 56a3 57be 440f 1a3e c2b0 aabd
00000170: bc5a 03be b94e 76be f652 923c cacf ab3d
00000180: af67 da3c 2df0 f13d 156d 01bc bd92 f83c
00000190: 5370 41be 543b 5c3e 41ec 05be 41ea d7bc
000001a0: 926e 9bbd 6335 d8bd 3ec8 abbc bcab a63d
000001b0: 1fe1 01be c3a3 e6bd 56cd 9ebd 0742 87be
000001c0: 6a8a 16be 5fc9 ca3d 120c 133e cca3 29be
000001d0: fe7c 5cbe b769 fb3d e000 53bd 5b32 3fbd
000001e0: 840c a7bd ec13 0d3e aef0 c0bd e781 243c
000001f0: d7f1 663c 05b7 a43d 70bf 75bd 1819 d93d
-0.03951303 -0.18665873 0.015925968 -0.13513194 0.10180316 0.14264041 -0.08592731 -0.011937347
-0.0441352 0.1791246 0.13362367 -0.062074777 -0.06360916 -0.15910628 -0.11995117 -0.12459923
0.16129623 -0.18351728 0.0093124155 0.1411158 -0.017410433 0.07664338 0.1477167 0.11337184
0.15541205 0.07986034 -0.12843508 -0.1405955 0.13375928 0.12500171 -0.11001368 -0.026985826
0.037902456 0.11930338 -0.021686807 -0.09069128 0.12383085 -0.026239399 -0.039522275 0.09744275
0.11142074 -0.043876506 0.07554899 0.23230062 -0.04805046 -0.06987916 -0.1826503 -0.12506866
-0.11833664 0.14943048 0.060905084 0.030156706 0.13760418 0.116148055 0.127991 0.16356692
-0.03634073 0.14702438 0.045417156 0.13289994 -0.11635256 0.09238646 -0.15037401 0.014316226
-0.2367328 -0.05001019 -0.0304281 -0.15138403 -0.0131688835 0.10667125 0.07986787 -0.11817921
0.104996696 0.12272272 0.18669029 0.13143729 -0.21763049 0.10115132 -0.14594789 0.035502132
0.11884773 0.08799107 -0.17447743 -0.01177436 -0.1620722 0.12960511 -0.13258581 -0.101592705
-0.16725187 -0.21058401 0.15044886 -0.08334495 -0.12827581 -0.24053468 0.017861824 0.08389242
0.026660768 0.11813388 -0.007899542 0.030343408 -0.18890505 0.21507007 -0.13078405 -0.026356818
-0.07589449 -0.10557058 -0.020969506 0.081382245 -0.12683533 -0.11261704 -0.077540085 -0.26417562
-0.14701238 0.0990169 0.14360073 -0.1656639 -0.21532056 0.12276023 -0.051514506 -0.046678882
-0.08156684 0.13777131 -0.09420906 0.010040737 0.014095745 0.08042721 -0.059997022 0.106004894

bn1.weight f4 [128]
00000000: 9855 693f 195e 713f 634f 7b3f 4901 843f
00000010: 6d09 793f 67f5 803f 1dcc 713f 7736 7a3f
00000020: f1c5 743f d49c 793f 2fab 783f d2f1 843f
00000030: bdf7 7b3f 2de3 7a3f 6354 7e3f 5186 733f
00000040: 9c04 7b3f 357e 823f 5c02 833f c20d 7c3f
00000050: e8e6 7c3f 6dd7 6c3f 57a0 843f 8ef3 7e3f
00000060: 0ad9 753f d29c 813f 10cf 873f 845c 7d3f
00000070: 2ac8 763f cad5 8e3f 6e4f 703f 02bb 873f
00000080: 3a05 863f 34c5 763f 31c1 833f ff10 853f
00000090: 1230 793f 745c 7d3f 33f1 853f db02 913f
000000a0: bf8b 7a3f 44b2 7e3f 66bd 873f a912 853f
000000b0: 319c 8b3f 4fcf 893f d1bc 843f 02b6 6e3f
000000c0: 6a9c 853f 18a4 813f 17b0 833f 80be 793f
000000d0: 8c1f 8c3f 11df 763f 47d1 7b3f 036f 763f
000000e0: 7b52 7d3f 1009 823f 75fc 813f a534 763f
000000f0: 0aea 743f e1dd 763f 3336 863f 4c6d 793f
00000100: 81ff 733f 3d61 733f 014f 7e3f 8001 7a3f
00000110: abb4 883f 67ab 783f 670d 793f 7107 803f
00000120: fa4f 733f e083 723f 8c6f 813f ff68 7a3f
00000130: 59c4 723f 7de8 7f3f 3c90 793f c374 843f
00000140: 5fd3 863f 65d8 803f 42c3 6a3f e3a2 883f
00000150: 0177 823f 9e5d 7a3f 4bd2 633f 57b9 833f
00000160: bb3e 823f bfc6 7e3f c3dc 7e3f 5ca5 863f
00000170: 6f1e 843f a4e6 6b3f 976d 813f 5d25 723f
00000180: d870 823f 5d1d 7e3f d005 783f 098f 813f
00000190: 1d5c 813f 36c9 7e3f 310f 773f c593 833f
000001a0: 0358 7b3f b76d 7d3f 2e2e 763f a1df 753f
000001b0: e403 833f 62dc 7a3f b9e2 6a3f 3d3e 763f
000001c0: b0ca 6c3f c7ae 7c3f 26c3 773f 9a9e 7d3f
000001d0: a47a 833f 2909 893f dadf 8a3f 1dae 843f
000001e0: dadd 7b3f 342d 813f 7b48 733f 232e 853f
000001f0: 8519 783f c54f 803f 5ffb 823f 90fa 6d3f
0.9114623 0.94284207 0.9816801 1.0312892 0.9728001 1.0074891 0.9445208 0.97739357
0.95614535 0.97504926 0.97136205 1.0386298 0.98424894 0.9800289 0.99347514 0.95126826
0.9805391 1.0194765 1.0235095 0.9845849 0.98789835 0.92516214 1.0361432 0.99590385
0.960343 1.0125983 1.0610065 0.9896929 0.96399176 1.1158993 0.938712 1.0603945
1.0470345 0.9639466 1.0293332 1.0395812 0.97338974 0.989692 1.0464233 1.1328996
0.97869486 0.9949076 1.0604675 1.039632 1.0907041 1.076639 1.0370122 0.9324647
1.0438359 1.0128202 1.0288113 0.97556305 1.0947127 0.9643412 0.98366207 0.9626314
0.9895398 1.0159016 1.0155169 0.9617408 0.95669615 0.9643231 1.048529 0.974324
0.95311743 0.9507025 0.993393 0.9765854 1.0680135 0.9713654 0.97286075 1.0002271
0.9504391 0.94732475 1.0112166 0.9781646 0.9483085 0.99964124 0.9748571 1.0348133
1.0533255 1.0066038 0.9170419 1.0674709 1.0192567 0.977991 0.88992757 1.0290936
1.0175394 0.9952201 0.99555606 1.0519214 1.0321788 0.92148805 1.0111569 0.9458826
1.0190687 0.99263555 0.9688387 1.0121776 1.0106236 0.99525774 0.96507555 1.0279471
0.9818117 0.98995537 0.96164215 0.96044356 1.0235562 0.9799253 0.917522 0.9618872
0.92496777 0.9870419 0.9678215 0.9907013 1.0271802 1.070592 1.0849564 1.0365635
0.98385394 1.009192 0.9503247 1.0404705 0.9691394 1.0024344 1.0232962 0.92960453

bn1.bias f4 [128]
00000000: f9ba 5c3d 098f 4abd 366e ad3d b156 083d
00000010: ae5f 05ba 377a fd3c 8e2c 0cbd f289 38bd
00000020: 36b8 33bc 7e45 d23d a45b 153d 4138 55bd
00000030: 1b22 463d cf5f 28bd 9091 26bd 2ab1 14bd
00000040: 4766 a3bd 0530 f4bc 7fd0 89bd ebce 73bd
00000050: cccd 8bbc 9c1a c73c 44ec 0d3d 6f45 a7bc
00000060: 97cd 8d3d 2d82 c63b 175a 1abc 007b 45bc
00000070: e0a4 883c d301 1fbd 8b5e 823c 6336 c33c
00000080: 38d0 0dbd baa3 40bd 2428 bb3c e1f4 b63c
00000090: b822 66bc 8794 4abd f753 e8bc 4a65 8dbc
000000a0: 21f3 19bd f4c9 55bc defa a93c fa15 0fbd
000000b0: f62f 59bb 3c3c ee3c 5c43 d23c 2e80 89ba
000000c0: 176e 88bc e197 83bc 891c e43c 43d9 7c3d
000000d0: 9a98 8abd b928 373d 478d 2fbd 17f0 a13d
000000e0: e14e 733d c506 9abb beb4 783d 88c2 ffbb
000000f0: b8f1 7bbc 8bdd 523d 7e11 e13c 4f26 bcbc
00000100: 4d6c f7ba 9940 af3d 1edc 58bc d538 a8b9
00000110: 24d9 ebbc 4077 5f3d 755f 2a3d 0128 6fbd
00000120: 1431 7ebc 2dcc 22bd 5057 1abd ecad 453c
00000130: 0456 c13d c06a 493c ced0 adbc d71e 5ebd
00000140: 71a1 c23c 4535 f6bc 2e2c 29bc da15 383b
00000150: 47f5 e4bc fbdf bdbc e0d0 2dbc 4d6f b33d
00000160: 592a 7abc 49aa 933c 6a59 3a3d 7167 91bc
00000170: 218e 213d 43a2 993d 747a e7bc 238d 8fbb
00000180: 6d1a e63b dbf4 213c 4707 153d a27f f63c
00000190: 1552 ebbc 7e99 6abb e3f1 e2bb fa2c 8f3c
000001a0: 4f04 2ebc 1af8 06bd 4c57 433d b5ae e73d
000001b0: d7d2 b03c 1ced 80bb a4cc 613d a4cf e2b9
000001c0: e84d da3c 92b2 293d e358 6c3d 881b 9fbd
000001d0: 7db6 b6bc fb45 873d 9f0e 803d e508 443d
000001e0: a366 383d 29a4 0bbd 6d85 89bd ac62 4dbd
000001f0: 36b5 2e3c 930e 623d 1fe2 83bd b5b6 a53d
0.05388925 -0.049452815 0.08468287 0.0332858 -0.0005087805 0.030942066 -0.03422218 -0.04505343
-0.010969212 0.10267161 0.03646435 -0.0520556 0.04837237 -0.041106995 -0.040666163 -0.03630177
-0.07978492 -0.029808054 -0.067292206 -0.059523504 -0.017065905 0.02430468 0.03464915 -0.02041885
0.06923979 0.0060579986 -0.009420893 -0.012053251 0.016680181 -0.0388201 0.015914222 0.023829645
-0.0346224 -0.04703114 0.022846289 0.022333564 -0.0140463635 -0.049458053 -0.02836035 -0.017260212
-0.03758538 -0.013048638 0.020749506 -0.034933068 -0.003314016 0.029081456 0.025666885 -0.0010490471
-0.016654057 -0.016063632 0.027845638 0.061730634 -0.06767388 0.04471657 -0.042859342 0.07907122
0.059401397 -0.004700514 0.060719244 -0.0078051724 -0.015377454 0.05148081 0.027474161 -0.022967486
-0.0018876881 0.08557243 -0.013236074 -0.000320858 -0.028790064 0.054557085 0.04159494 -0.05838776
-0.015514631 -0.0397455 -0.037680924 0.012065392 0.09440234 0.012293518 -0.02121773 -0.05422863
0.023758622 -0.030054698 -0.010325475 0.0028089196 -0.027948989 -0.023178091 -0.010608882 0.08761463
-0.0152688855 0.018025534 0.04549543 -0.01774952 0.039442185 0.07501652 -0.028256632 -0.0043808385
0.007022193 0.009885038 0.036383893 0.030090157 -0.028725663 -0.0035797055 -0.006925808 0.017477501
-0.010621144 -0.03295145 0.047690675 0.113126196 0.021584911 -0.0039345156 0.0551268 -0.00043260783
0.026648477 0.041430064 0.057701956 -0.07768923 -0.022303814 0.066051446 0.06252789 0.047860045
0.045019757 -0.034092102 -0.06714902 -0.05014293 0.010663321 0.05518968 -0.064396136 0.08091489

bn1.running_mean f4 [128]
00000000: 617f 8a3e f4af 0d3e f476 873e b2bf 713e
00000010: d309 733e db80 843e ecc9 1c3e 3036 913e
00000020: df30 5f3e 02d2 c03e 5cdc 9d3e 2881 203e
00000030: cb1c 293e aa19 223e a029 6d3e e04c 3d3e
00000040: 9159 ff3e 616a 683e 1419 4f3e 1c40 a23e
00000050: f68f a23e e7cb 7d3e b89c c43e 5372 cf3e
00000060: 1c1f a03e d2eb 803e 37f3 513e c286 593e
00000070: 0eb7 8e3e 4a90 993e ca97 493e fe6b 7c3e
00000080: fc28 343e d17f b23e 583a 533e 237d 323e
00000090: dd12 f73e dfda 4d3e 4f4d 463e 4f40 8c3e
000000a0: 07cc ee3e 2c5e 323e ca3b 3b3e b9ed c53e
000000b0: 49a3 133e 16f6 2b3e 55a3 0b3e b9a2 653e
000000c0: 338f 283e 1be2 993e 743c 593e df8d 8b3e
000000d0: ce6e a93e 5041 b33e f9db 823e 5b54 ab3e
000000e0: 8364 5a3e 8776 a43e fc24 933e 119d bf3e
000000f0: c728 f63d 5657 523e e176 243e 416b 9f3e
00000100: 4d07 d23d 7e5a 283e 4a05 943e dca1 953e
00000110: 824d 1b3e 5c5c 9b3e 3a06 843e 9805 973e
00000120: bc8a 953e 7407 a13e 96a3 f23e e9aa 853e
00000130: b29e 5a3e fbd1 993e 811c 443e b286 973e
00000140: 1f45 ad3e d71b bb3e 7d27 4d3e bdf3 743e
00000150: d2b5 4e3e 65a1 953e 3894 2a3e 73a9 3a3e
00000160: c13e 033e 34e1 283e 081b a73e 199d 733e
00000170: 96c9 1f3e 131f e93d e627 b13e d1bd 9d3e
00000180: 744c 4b3e 6399 ad3e a668 a33e 20d0 7e3e
00000190: ce2c 2d3e 025b 9a3e bc5d 523e e8bb 633e
000001a0: e26c 313e 0a5b 323e a396 603e b3f3 8f3e
000001b0: 6796 4d3e 88bc 213e 8093 4e3e 325d bf3d
000001c0: 720d 2b3e f419 963e 164f aa3e 04b3 013e
000001d0: dd9d 1f3e 858f a73e 284f 563e aa2d 163e
000001e0: 06a2 893e 7363 8f3e 428e 553e a42e 533e
000001f0: bc18 7f3e c3d8 6d3e 096c a93e 755f cb3e
0.27050307 0.13836652 0.26457942 0.23608282 0.23734216 0.2587956 0.15311402 0.28361654
0.21795987 0.37660223 0.30832183 0.15674269 0.1651489 0.15830103 0.2316041 0.18486357
0.4987302 0.2269683 0.2022441 0.31689537 0.31750458 0.24784814 0.38400817 0.4051691
0.31273735 0.25179917 0.20502935 0.21242812 0.27874035 0.29992896 0.19686809 0.24650571
0.1759376 0.3486314 0.20627725 0.17430548 0.4825658 0.20103024 0.19365428 0.27392814
0.46640036 0.17418736 0.18284526 0.3865793 0.14417757 0.16793093 0.13636525 0.22425355
0.16460876 0.30055317 0.21214467 0.27256677 0.3309235 0.35010767 0.2555845 0.33462796
0.21327405 0.3212168 0.28739154 0.3742452 0.120194964 0.20541129 0.16060974 0.31136516
0.10255299 0.1644077 0.28910285 0.2922505 0.15166286 0.30343902 0.25786 0.29496455
0.29207408 0.31451 0.4739043 0.26106957 0.213496 0.30043015 0.19151498 0.29594952
0.33841798 0.36544678 0.20034595 0.23921104 0.20186546 0.29224697 0.16658103 0.18228702
0.12816907 0.16492158 0.3263781 0.23790397 0.15604243 0.1138288 0.34600753 0.3080888
0.19853383 0.33906087 0.31915778 0.24884081 0.16911623 0.30147558 0.2054357 0.2223965
0.17326692 0.17417541 0.21932463 0.28115615 0.20076905 0.15794575 0.20173454 0.093439475
0.16704348 0.29316676 0.33263463 0.12665945 0.15587564 0.32726684 0.20928633 0.14665857
0.26881427 0.2800556 0.20855048 0.2062326 0.24911779 0.2322722 0.33090237 0.39721265

bn1.running_var f4 [128]
00000000: f7b2 583e c459 543d d92b 123e d701 503e
00000010: 5e25 a63d 2dc2 993d 409f 7f3d 5dac 383e
00000020: 5146 113e 3319 233e c83d 1f3e 2ac8 9b3d
00000030: 83e5 933d 0a20 5d3d 5c78 0f3e e4cf fb3d
00000040: de41 b63e 1b76 0e3e 327b ae3d b4fe 0e3e
00000050: fb93 603e 3991 c43d 2269 523e eb8a 8e3e
00000060: dc6e 133e d8ec bb3d ba7f e73d 5574 0a3e
00000070: 8176 343e 60fe e33d 9a2e f13d f258 193e
00000080: 7c2d 303d b725 523e f525 f13d c602 ca3d
00000090: 9026 ac3e 7cc2 e93d b472 c93d a1d4 fb3d
000000a0: ffda e33e 90eb 973d a135 833d 098a 2d3e
000000b0: 4b70 373d fb35 5a3d f626 a33d 9bc5 4e3e
000000c0: 0176 993d 7a78 f23d ea0c a33d 5e63 1f3e
000000d0: 77cd 0b3e 833c 883e 9963 c73d 7489 283e
000000e0: 5f19 f63d 5916 353e d15c 623e f102 833e
000000f0: 94d5 653d 7f37 913d 2043 913d ec74 5b3e
00000100: 1b78 2c3d d4d2 aa3d 1d6f 7b3e c661 943e
00000110: cb4a 843d d046 ed3d ebf6 4a3e 45b9 883e
00000120: 74b3 563e 0925 6d3e 0d2d db3e e752 123e
00000130: 67da 173e 8fbc 423e 38d1 af3d ee41 2c3e
00000140: f78f 3e3e 4503 363e 2ab8 073e d35d ff3d
00000150: fdd5 b93d 79c0 283e a993 0d3e 2482 9e3d
00000160: 69d2 513d 14ae c43d 1a3d ff3d b463 473e
00000170: 9240 8f3d e2e2 4b3d 61dc a33e 0e06 363e
00000180: b696 a63d 7541 4f3e cb4a 9c3e ddbb 113e
00000190: a17c 9e3d 60b8 d13d b72a 9b3d 5f96 ee3d
000001a0: 01c5 a03d 0a37 b43d 738b 163e ff80 1d3e
000001b0: 4881 f63d 718f 8b3d fa0e d03d e2c5 813d
000001c0: 94b5 8e3d 7593 d33d 86b8 703e 7ab3 763d
000001d0: f194 a03d 7fe4 0c3e 23be b63d 3d66 593d
000001e0: b9c5 3a3e 63a4 d53d 3fc6 0b3e 023e ab3d
000001f0: 39f4 563e d5eb cb3d 0cee 713e 8317 bf3e
0.2116202 0.05184342 0.14274539 0.20313202 0.08112596 0.07507739 0.062407732 0.18034501
0.1418698 0.15927581 0.15550911 0.07606538 0.0722151 0.053985633 0.14010757 0.12295511
0.35597128 0.13912241 0.085195914 0.13964349 0.2193145 0.095980115 0.20547917 0.2784036
0.14397758 0.09176034 0.11303659 0.1352094 0.1762333 0.111325026 0.11776467 0.14975336
0.043012127 0.205222 0.11774818 0.0986381 0.3362317 0.11414048 0.09836331 0.12296415
0.44503018 0.07417977 0.06406713 0.16947187 0.044784825 0.053274136 0.079664156 0.20192568
0.074932106 0.11839385 0.079614475 0.1556525 0.13652597 0.26608667 0.097357936 0.16458684
0.12016558 0.17684306 0.22105719 0.25588182 0.056111887 0.07090663 0.07092881 0.21431321
0.04210673 0.083409935 0.24554105 0.28980845 0.06459578 0.11585772 0.19820754 0.2670385
0.20966893 0.23158659 0.4280781 0.14289437 0.14829408 0.19017242 0.08584827 0.16822025
0.18609606 0.17774685 0.13253847 0.124690674 0.09074018 0.16479672 0.13825859 0.07739666
0.051226053 0.09603515 0.12462826 0.19471627 0.06994738 0.04977692 0.32004073 0.17775747
0.081342146 0.20239814 0.30525813 0.1423182 0.07738615 0.10240245 0.075765066 0.11649775
0.078500755 0.0879956 0.14701633 0.1538124 0.12036377 0.06814469 0.101591066 0.06336571
0.06968227 0.103308596 0.2350789 0.060229756 0.07840908 0.1375904 0.089229845 0.053076018
0.18239488 0.10431745 0.13649844 0.083614364 0.20991601 0.09957091 0.23625964 0.37322626

fc2.weight f4 [64, 128]
00000000: 3d70 da3c 7d1d cabd dc0b 9dbd b227 4ebd
00000010: 8b3f d7bc 9234 133c 7d5c 74bb be05 bfbc
00000020: 66b5 28bd 99e6 0cbd 28f8 abbc 5c9f 6c3d
00000030: e083 803d f161 fb3d 0dd5 70bd 06e4 21bd
00000040: 0e62 b3ba 482e a03d 09d2 823d 3795 a7bd
00000050: 3874 233c e7a7 6b3c 1d38 b5bd 0557 713c
00000060: 20ba d5bc f932 e93c 177a 02bb 15c7 8a3b
00000070: 2214 0fbd 1fcf 8fbd 3880 c8bc d03b 853d
00000080: 8a2d 953d 191d a13c 8f0e 613c 0108 9f3d
00000090: 40b8 f83c c492 ac3d 05f6 b23c 3666 513d
000000a0: fccb f2bd df29 433d 34c9 9fbd 2f05 8abc
000000b0: eb6f a8bd c05c bb3d 5dc3 7bbd 8219 48bd
000000c0: 983e 68bc fbba 8e3d d7ad 403d ca00 ad3d
000000d0: 800b 0abe 8540 a4bd c241 1bbd 7e6c 18bc
000000e0: 980f 033d da4a 9e3d 5433 673d 8395 243d
000000f0: 27ee ab3d ed2e 31bc b842 a53d 4af0 7cbd
00000100: cceb 0c3d fe1e 293d 70b7 8cbc c7e2 853d
00000110: 2f84 27bd ea33 2c3c a6bf 5c3d 9632 093c
00000120: 943e 8e3d 22f4 c0bd 0ce4 e9bd fc2a 3f3a
00000130: 5a39 c63d 5ac2 633c 4488 1cbd c9d7 a5bc
00000140: b493 96bc daed 9dbd 735e bf3d 8467 25bd
00000150: d334 80bd cab4 90bc 1b1c 963d 9709 d43d
00000160: c67a 80bd ea0c e03d f373 963d 0a1d 9fbd
00000170: 7517 003d 9e0e 1a3d a153 9ebd fb62 9bbc
00000180: 59c0 b2bc 8ad0 13bd b8d7 1cbb ed07 ed3d
00000190: 10a2 d3bd eb30 4b3d ac99 383d 9413 543d
000001a0: 6fd7 5dbc 247e df3d 8d5f 6dbc 2931 2c3d
000001b0: ac7c 42bd 1f09 763d 164d 0fbd cbaf 19ba
000001c0: b3e4 773d 6bcd 133d 35c6 6e3d 943c fd3c
000001d0: e7d2 713c 9e3a 573d 3c50 a83d 437d a03c
000001e0: e124 b7bd e787 4bbd c7c0 7ebd 4df5 d2bd
000001f0: f975 b63c f1ce 43bd 0b9f cf3b b346 dd3d
00000200: 78e3 f2bc 796e 163d 010c 93bd c4c3 713d
00000210: 3697 0fbd 2c4c d13d 58ba 9e3b 296a 03be
00000220: 6837 a5bd ba5e e5bd 7892 a13d 2fb6 50bd
00000230: 4edc 9fbd f6e3 b3bd d741 3b3d fd47 343d
00000240: e667 243d a7d6 bbbd 1669 b0bd b901 11be
00000250: 2e8f d6bd 7c59 643d c5c9 32bc a96b 6f3d
00000260: b2b0 e1bd 34fe 823d fba2 013d 26f5 5ebc
00000270: fab3 d23c c28b 3cbd 1429 aa3c e45e 093e
00000280: 616b 45bd b997 833c 351d fdbc f494 bdbc
00000290: 5b20 1cbd bc24 a83b a9d0 cbbd 09af 8abc
000002a0: a1a3 05bc d6a2 c9bd ca2b 123d 65c0 cebc
000002b0: eabb 0fbc e2b5 043d 954d 7b3d ac9b ecbc
000002c0: 2127 1fbd 6aeb 563d f4a9 5b3d 2b59 4ebd
000002d0: ec73 9b3d 74fd 2e3d 187a 433d 5eaa e9bd
000002e0: ccd0 bc3d a8b1 2fbd 3c5b 9fbb 7d9b 10be
000002f0: 9986 1b3d 46c1 2cbd 431d 0f3d 2776 85bd
00000300: d5ba c23c 1817 8a3c 13f5 b3bd bbd5 c7bd
00000310: 48c6 0cbd 1cd8 24bd 1602 c33d d34f 413d
00000320: 3dcb dabd 481f da3c 8e99 5d3d 7a11 963d
00000330: da25 d7bb 2f69 1d3d ac58 dabd 5f4c 683d
00000340: 9903 d2bd 4827 ccbb 96b5 45bd 974f 17be
00000350: 53df 383c 89dc 273c 81c1 9cbb 9f08 6cbc
00000360: fbc9 1d3d e424 de3b d00a 153d 6e8d b13d
00000370: 3385 763d 84f1 acbb 876a 273c 1dc7 073c
00000380: aac0 80bd c3a7 8e3b 5fbc 04bd a54f 8cbd
00000390: 4680 4a3d 1269 10be e281 373c 23de d3bd
000003a0: a854 bc3d 7129 4b3d 119f 093d a13d 693c
000003b0: 259e 08bd 184f a0bd 68dd e53c 5c5d 013c
000003c0: 5d19 823c 5e93 cdbd 73af 593c 2eba d4bc
000003d0: 3e31 24bc 17de a23d f1c9 703b 1057 19b6
000003e0: 39cd 3b3d d7df c33d ef75 3a3d bebe 8b3c
000003f0: 9234 d0bb 39d7 7e3d 3732 97bc e241 c33c
0.026664848 -0.09868906 -0.076682776 -0.050330825 -0.026275417 0.008984702 -0.0037286573 -0.023318168
-0.04118862 -0.034399603 -0.020992354 0.057769164 0.06275153 0.1227454 -0.05879693 -0.0395241
-0.0013685839 0.078213274 0.06387717 -0.08182757 0.009976439 0.014383293 -0.088485934 0.01473022
-0.026089728 0.028466688 -0.0019909197 0.004235158 -0.03493131 -0.07021927 -0.024475202 0.06505549
0.072840765 0.019667195 0.013736381 0.077651985 0.030361295 0.08426431 0.021845827 0.051122867
-0.11855313 0.047647353 -0.07802048 -0.016848175 -0.08224472 0.0914855 -0.06146561 -0.04885245
-0.01417508 0.069692574 0.047040787 0.08447416 -0.1348095 -0.080201186 -0.03790451 -0.00930321
0.031997293 0.077291206 0.056445435 0.040181648 0.08395033 -0.010814411 0.08069366 -0.061752595
0.03440456 0.041289322 -0.017177314 0.06537395 -0.040897544 0.010510424 0.053893708 0.008373877
0.069455296 -0.09421565 -0.114204496 0.0007292477 0.09678908 0.0139013175 -0.03821589 -0.020244496
-0.018380977 -0.07711382 0.09344187 -0.040381923 -0.062600754 -0.017664332 0.073295794 0.103533916
-0.06273417 0.10939963 0.07346334 -0.07769211 0.03127237 0.037611596 -0.07730795 -0.018968096
-0.021820234 -0.03608755 -0.002393229 0.11573777 -0.10333645 0.0496072 0.045068428 0.051776484
-0.013540133 0.10912731 -0.014488113 0.04203907 -0.047482178 0.060067292 -0.034985624 -0.0005862682
0.06052084 0.036084574 0.058294494 0.030912675 0.014759756 0.052546136 0.082184285 0.01959098
-0.08942581 -0.049690153 -0.062195566 -0.10300694 0.02227305 -0.047804777 0.006336098 0.108045004
-0.029649481 0.03672645 -0.07180024 0.059024587 -0.035056315 0.10219607 0.0048439912 -0.12833466
-0.080672085 -0.11199708 0.07889265 -0.050954994 -0.07805692 -0.087837145 0.045717087 0.044013966
0.040138148 -0.09171801 -0.086137936 -0.14160813 -0.10476528 0.0557494 -0.010912363 0.058452282
-0.1102003 0.06396142 0.03164957 -0.013608253 0.025720585 -0.04603172 0.02077154 0.13415104
-0.048198108 0.016063558 -0.030897716 -0.023142315 -0.038116794 0.005131332 -0.09951908 -0.016929166
-0.008156688 -0.098455116 0.03568629 -0.025238225 -0.00877283 0.03240002 0.061353285 -0.028882824
-0.038855676 0.052470602 0.053628877 -0.050378006 0.0759047 0.04272218 0.04772386 -0.11409448
0.09219512 -0.042894036 -0.004863171 -0.14121814 0.03797016 -0.042176507 0.034940016 -0.065166764
0.02377073 0.016856715 -0.087869786 -0.09757563 -0.034368783 -0.04024516 0.09521882 0.047195267
-0.10683296 0.026626244 0.05410152 0.07327552 -0.0065657916 0.03843039 -0.10661444 0.05671346
-0.102545924 -0.0062302686 -0.048268877 -0.14776455 0.011283713 0.010245451 -0.0047838097 -0.014406352
0.0385227 0.0067793 0.036387265 0.08669554 0.060185622 -0.0052778143 0.010218269 0.008287218
-0.06286748 0.004353495 -0.032406207 -0.068511285 0.049438737 -0.14102581 0.0112004 -0.103451036
0.091958344 0.04960007 0.033598963 0.014235885 -0.033353943 -0.07827586 0.028059676 0.007895794
0.015881235 -0.10037874 0.013286459 -0.025967684 -0.010021506 0.079525165 0.003674146 -2.2849454e-06
0.045850012 0.095641784 0.045522626 0.017058726 -0.006353923 0.06221697 -0.018456561 0.023835126

fc2.bias f4 [64]
00000000: 9807 41bd 727e 5a3d d543 46bd a39c 25bd
00000010: 3d1b 8f3d bee6 0d3e 7b8f adbd d4e3 4fbd
00000020: 01b5 cf3d 3bfe b73d 7529 eb3d 2eb2 653d
00000030: f3d9 30bd 2a16 1f3d 5b12 903c 1b38 853d
00000040: 3913 253d 5fd3 0a3e 01a1 e8bc a97c 343c
00000050: b016 8b3d 4616 46bd 0d76 9fbc 399b e3bb
00000060: e9ff dfbc 8e30 a33d 3435 94bc e697 823d
00000070: c004 f6bc 6aca 38bc d922 8e3d d93a 9d3d
00000080: 3159 ab3d 5aff 91bd 7bbf b03d 11c4 95bb
00000090: 1359 d0bd 6d7c 9a3c 2e55 febc ad51 9cbc
000000a0: 44d7 9f3d ffe6 40bd 533a 763d 5240 19bd
000000b0: c310 b33c 039a b7bd a36a 053d b9e6 52bd
000000c0: 35fd 073d beed 1b3b 3fd1 6abc eee6 ba3d
000000d0: 5cfb f63d 9531 e23d b68d bbbd 4d4e 06be
000000e0: c76a 84bd 27da a73d 6242 ebbc b0f0 2d3d
000000f0: 806a 7cbc bc85 893c 6404 013e a4cc f8bd
-0.047126383 0.053343244 -0.048404533 -0.040432584 0.06987617 0.13857552 -0.08474632 -0.050754383
0.10141946 0.089840375 0.11482517 0.05607813 -0.043176603 0.038839497 0.017586878 0.06504842
0.040301535 0.13557194 -0.028397085 0.011016049 0.06791437 -0.048361085 -0.01946547 -0.006945994
-0.027343707 0.079682454 -0.018091775 0.063766286 -0.030031562 -0.011278728 0.069402404 0.0767724
0.08366621 -0.071287826 0.08630272 -0.004570492 -0.101732396 0.018858159 -0.031046476 -0.019081915
0.078047305 -0.047095295 0.060114216 -0.037414856 0.021858579 -0.08964922 0.0325724 -0.051489566
0.03320046 0.0023792828 -0.014332115 0.091260776 0.12059662 0.11044613 -0.091578886 -0.13115807
-0.06465679 0.08195906 -0.028718177 0.042465866 -0.015406251 0.016787402 0.12599331 -0.12148407

bn2.weight f4 [64]
00000000: 9680 743f fe3f 823f c606 833f f80d 843f
00000010: 3225 7c3f 2336 823f 89ce 763f 4a97 713f
00000020: 03ea 753f 0259 813f f811 843f 8f3c 6e3f
00000030: 24a7 703f 3a7b 853f 0905 823f 6fea 753f
00000040: 3097 7a3f 90d2 863f 3e7b 6d3f b01b 893f
00000050: db00 813f b4f2 883f fdbf 853f 1026 813f
00000060: abfe 6a3f 5b12 6f3f 3b7d 6d3f 2fd3 653f
00000070: 52a6 753f 6ba3 743f 5f1c 803f 9e51 7b3f
00000080: a982 773f a761 843f 8392 813f 0bc1 803f
00000090: ce1a 683f 7e58 883f 3e58 6d3f 4460 833f
000000a0: 3e3c 873f 5fb9 803f d369 723f 2132 7f3f
000000b0: 1789 8a3f a581 6f3f 8448 6f3f f984 823f
000000c0: 9741 783f 5240 7b3f d8bd 833f 82f4 8d3f
000000d0: f7f6 823f 2401 8e3f acdc 853f 86fa 713f
000000e0: 8d27 8d3f d88b 853f 99dc 753f 4d56 823f
000000f0: 35b7 6e3f adec 803f 0f40 813f 3852 743f
0.95508707 1.0175779 1.0236442 1.0316763 0.98494256 1.0172771 0.964089 0.94371474
0.960602 1.0105288 1.0317984 0.93061155 0.94005036 1.0428231 1.0157787 0.9606084
0.97886944 1.0533009 0.9276618 1.0711575 1.0078386 1.0699067 1.0449215 1.0089741
0.9179484 0.93387383 0.9276921 0.89775366 0.9595691 0.95561856 1.0008658 0.9817141
0.96683747 1.0342301 1.0122837 1.0058912 0.906659 1.0652006 0.9271277 1.0263753
1.056526 1.0056571 0.94692725 0.99685866 1.0823087 0.93557197 0.93470025 1.019683
0.9697508 0.9814502 1.0292311 1.1090243 1.0231618 1.1094098 1.0457969 0.94522893
1.1027695 1.0433302 0.9603973 1.0182587 0.932483 1.0072228 1.0097674 0.95437956

bn2.bias f4 [64]
00000000: de9d e13d 9d27 a7bc 6d8b 463d 4cc8 e53d
00000010: 0e5e 8c3d c9b3 25bd c048 133d 50fd 753d
00000020: af60 963d 2335 d8bd bab4 1abd 708c d5bd
00000030: b0d3 113e 42ba b739 98a4 ffbc aa2d 1ebc
00000040: a2be bebd b8dd ed3d 9467 a23a 806e 753d
00000050: ed1c 81bd 6a8f 563e 8ff1 903c 0b63 9bbc
00000060: 9817 c3bc a07d 863b 5e0f 553d 7bb0 423d
00000070: 4d47 273d 93f1 05be 0a13 d93d 74c0 04be
00000080: bec0 1b3d 6292 5e3c 3df7 08bd b17a d53c
00000090: 99f4 1e3d 75e5 83bd 1e99 bbbd edeb 0c3c
000000a0: f788 16bd b254 a7bd 5c7d bb3d ecf2 ce3d
000000b0: 79d9 c5bd 6ac2 24bd a168 febd 6581 5abd
000000c0: e851 303e a729 833d 6f8c 6abd 24fc 223d
000000d0: 7641 2cbe b9b3 b33b 7646 8b3d d690 32be
000000e0: 40a8 c13d 3c9d f2b8 d825 bbbc 2bcc be3c
000000f0: bbe4 26be f386 133e 8fc9 003d 16fe 933d
0.11016439 -0.020404631 0.04847281 0.11219844 0.06853877 -0.04045466 0.03595805 0.06005603
0.0734266 -0.1055701 -0.03777001 -0.10427177 0.14240909 0.00035043253 -0.031206414 -0.009654442
-0.09313704 0.11614555 0.0012390488 0.059919834 -0.06304345 0.20953146 0.01769331 -0.018968126
-0.023814961 0.004104331 0.05201661 0.047531586 0.040839482 -0.13080435 0.105993345 -0.1296404
0.03802561 0.013584705 -0.03343891 0.02605948 0.038807485 -0.0644025 -0.09160064 0.008601171
-0.036751714 -0.08170451 0.0915477 0.101049274 -0.0966062 -0.04022447 -0.124223 -0.053346056
0.17218745 0.06404429 -0.057262834 0.03979124 -0.16821846 0.005484071 0.06800549 -0.17438063
0.09455919 -0.000115687464 -0.022845194 0.023290714 -0.16298191 0.14406948 0.03144222 0.072261974

bn2.running_mean f4 [64]
00000000: 4240 183f c853 e93e 86eb 523f 9f1c 013f
00000010: e175 363f fdc0 373f b506 b93e af4e 253f
00000020: d5d0 1d3f ee58 0e3f aab7 213f fe7a f03e
00000030: aa38 ce3e 4eb4 f53e fb04 dd3e 35cc 1f3f
00000040: 1c75 0d3f 21af 013f 1fbf f63e a7e3 3e3f
00000050: a0f1 1e3f 1ce6 b73e 5beb 1c3f ea5a f23e
00000060: a13f de3e 5777 413f 023f 1d3f c527 1e3f
00000070: ac2a fa3e 158e e93e 3b0b 0d3f 4cbc 0f3f
00000080: 3ec8 0e3f f245 f03e 4ca1 183f 2309 d63e
00000090: e25d e63e 0d27 553f 2fe9 2b3f fe31 d33e
000000a0: eb0f 173f 2a56 043f 85ee fc3e e202 a53e
000000b0: 3ee9 4c3f 3bc0 013f c5c1 be3e 707d e83e
000000c0: 12cd ff3e ec37 d73e 7653 3e3f 5433 f23e
000000d0: 0896 203f 5dc5 293f d552 f63e d56f 043f
000000e0: 3689 0a3f 15d8 063f cb24 aa3e 326e e13e
000000f0: 5988 dd3e 7cbd 063f db9c f03e b56b aa3e
0.5947305 0.45571733 0.8239063 0.504343 0.7127362 0.7177885 0.3613793 0.64573187
0.6164678 0.55604446 0.63170874 0.46968836 0.40277606 0.47989124 0.43167862 0.6242097
0.5525682 0.5065785 0.4819269 0.7456612 0.6208744 0.35917747 0.61296624 0.47334987
0.4340792 0.75572723 0.6142427 0.61779433 0.4886068 0.45616212 0.5509526 0.56146693
0.55774295 0.46928364 0.5962112 0.41803846 0.44993502 0.8326271 0.67152685 0.4124908
0.59008664 0.51693976 0.49400726 0.32228762 0.800434 0.50683945 0.3725721 0.454082
0.49961144 0.42034853 0.743461 0.47304785 0.6272893 0.6631678 0.4811007 0.5173314
0.5411562 0.52673465 0.33231196 0.44029385 0.43268088 0.5263288 0.4699467 0.332853

bn2.running_var f4 [64]
00000000: 5e48 843f 6b6f e83e b026 bc3f 7e19 183f
00000010: 4641 6a3f 0ab6 7a3f 1499 b33e a6f5 ab3f
00000020: 5598 4f3f de0a 5d3f 1e45 3d3f 2fc0 f43e
00000030: 8339 f63e 44bb 1f3f d470 e33e c557 613f
00000040: 7a98 3b3f 9866 083f 3956 153f 753a 7d3f
00000050: 2781 393f e1dd bf3e 2690 7e3f e1bb 1e3f
00000060: 63be f53e 90bf 9a3f 63ca 5d3f 32b3 523f
00000070: 1916 133f 0558 0a3f f062 483f fedf 203f
00000080: 8df3 303f 592a 0d3f 21a2 1a3f 45fc f13e
00000090: ba68 0d3f 9248 c13f c67b 5c3f 01fa f23e
000000a0: 7ed4 393f 5c3a 383f 14ac d73e 7d9c a63e
000000b0: 6a5a b13f 34bd 2d3f a4d2 ba3e 0986 073f
000000c0: 531b 0e3f 9f6c bd3e 3854 ad3f 50bf e73e
000000d0: b37e 7a3f 13bf 443f 1c58 253f 41a8 4b3f
000000e0: 96ec 4b3f e497 103f d3b5 863e aac9 d83e
000000f0: c115 de3e 8ab1 4c3f 6e62 ec3e d917 ac3e
1.0334585 0.45397505 1.4699306 0.594139 0.9150585 0.9793402 0.35077727 1.3434341
0.81091815 0.86344707 0.7393359 0.47802874 0.48090753 0.6239512 0.4442202 0.8802455
0.73279536 0.53281546 0.5833469 0.98917323 0.72462696 0.37473968 0.99438703 0.6200543
0.47996816 1.208971 0.8663694 0.8230468 0.57455593 0.5404056 0.78275967 0.62841785
0.6912163 0.5514274 0.6040364 0.4726278 0.55237925 1.5100272 0.86126363 0.47456363
0.7258986 0.7196405 0.42123473 0.32541266 1.3855717 0.67866826 0.3648883 0.52938896
0.55510443 0.36996934 1.3541327 0.45263147 0.9784958 0.76854056 0.6458757 0.7955361
0.79657876 0.56481767 0.26310596 0.42341357 0.43375972 0.79958403 0.46168846 0.33611944

fc3.weight f4 [32, 64]
00000000: 9997 2ebd 385f b6bc 63cf 943d 9666 e63d
00000010: 091e de3d 5ca8 50bd 17e6 a63d ff0a 8d3c
00000020: efd0 1abd 5e4c 003c de28 15be fe84 11bd
00000030: 5f5e 733d 7b13 9b3c 67f1 82bd a344 fcbd
00000040: 9955 47bd b695 75bd 7bc3 433d f239 983d
00000050: 03ae dc3d f094 663d 92e6 a4bd 29ed a43c
00000060: 5896 2c3d 595a fdbc 792f c4bd 18ed e73c
00000070: 9525 763d 9cd7 db3d 3b35 e1bc 5440 04bd
00000080: 2425 183d b50b 873d 9430 003e c605 943d
00000090: ff02 823d 1196 bf3b d4b3 573c 6722 373d
000000a0: 4c00 f93d 4797 483d 04a9 6a3d feb9 b13d
000000b0: b381 00bd 5409 51bb ed9e 0a3e 1558 c1bc
000000c0: 0897 76ba 6eb3 90bd c9c6 1dbd 0519 81be
000000d0: 5f4c 17be 26a7 babc 703d a53d 0c87 8dbc
000000e0: 173f 69be 8849 18be c8df 8b3d 78ab 27be
000000f0: 6bca fbbb 31c0 ce3d 84e1 87bb 842f 203b
00000100: b836 f73d e8d0 3cbd d661 603d 5fa0 323d
00000110: 1bfa b73d 5cd6 cebd 5a38 e83d b53c 6dbc
00000120: d786 6d3d 1f2d b9bd 610f c23d 7036 2bbe
00000130: 88c8 333d fc64 f4bd 3e86 da3d f454 f73d
00000140: d6aa 293d d7c2 1e3e 72c2 43bc c9d4 793d
00000150: 5905 c0bd b168 f03d f29c 4b3d 8765 883d
00000160: 7159 133c 5ad5 d4bd 557f 083e e830 96ba
00000170: f6eb 2b3d f0fc f8bb bba9 0b3d 965f 29be
00000180: a8e9 d93d 5b52 9cbd 81c2 003c 23f2 083e
00000190: 72fe cfbc 077f 4bbd 96fc d8bb a986 9abd
000001a0: 510e f1bd d36d 50bd a7d9 e13d 6cb1 2a3e
000001b0: e90f 80bd 6d3d c3bd 8669 08bd 6827 c73c
000001c0: 9fb1 993d aa3c 75bd a3ef 8c3d f58f e33d
000001d0: 2ae6 2e3e 78e3 a23d f08e 463d 9734 3ebd
000001e0: b83c 2cbc e487 583d 3b84 a33b 5e5e 173e
000001f0: b6e8 b6bd 3500 c4bc cc28 18be 215a f23c
00000200: f81a 67bc 0000 f8bb 8e8b 083d e315 b7bd
00000210: 8808 2f3d fdce 84bd 6a69 073e 3587 6cbd
00000220: 8895 e03a a2df bc3d c4bc bd3d 6c75 7cbc
00000230: 6d92 a73d f6ec 003e fc17 98bd 44ab 3fbd
00000240: 20ce 083d 3795 6ebd 4681 e43c 0cf1 01be
00000250: 9bc3 fd3c 22d4 b9bd 4569 743c 136a 0f3e
00000260: 266a c83d 5bab b53d 5883 5ebc 464b 333d
00000270: 4dbc 303d 4993 b1bd 1c3c 9fbd 695c 7cbd
00000280: 01c0 263d fd4a 1ebd bb57 26bd 4e5f ba3d
00000290: 8175 123c 0ae2 83bd 93d8 8bbd 19e1 533d
000002a0: 927b bbbd 1306 31bd 8a9b 04be fbf1 d9bd
000002b0: 3547 ac3d 8beb 9cbd 0334 9b3d b63b 41bc
000002c0: 614a bc3b f9f2 d3bd e65e 043d 82f2 1f3c
000002d0: 0be1 5abd e1bb 2fbe 35a4 15be 5c4c 4a3d
000002e0: 4ba7 183e 5263 6dbd e907 863a a372 8e3d
000002f0: 899a 8e3c 592d a53d e20b dd3c ca3f 983c
00000300: 1d2c 99bd b53a 80bd 219b b93c 7a1c be3d
00000310: 427f dabd a32b a63b 4338 8abd 1fd3 7d3d
00000320: 1dba 023e e35d ebbd c807 cfbd 4837 81bc
00000330: 53fb 8ebd 8ad3 83bd a408 1c3c 15e8 5dbd
00000340: cd12 86bc 905f c2bd 0023 46ba f2c1 be3c
00000350: 5f07 fcbc d26a c63d f169 35bd 7180 943d
00000360: 6b88 18be 6460 db3d 35d5 00be 79aa bcbc
00000370: 3869 0cbb 5041 5c3d c647 3d3d 3d15 923c
00000380: 4e3e db3d d4b0 ba3d 1991 113e cb9f 163c
00000390: 08a5 023e a0f0 da3c ce6e a33d aefb 813d
000003a0: 061c 2a3e ce6b 99bc 180b 903d eb62 103e
000003b0: 5e58 fabd d4cb 85bc 7ceb 20bd 7d81 d33b
000003c0: 063a 873d 5b13 083e 41ef 223c 7109 09be
000003d0: 591c e83c e906 0b3e b0bd 633d e419 01be
000003e0: d50b 84bd a953 aabd fc36 b1bd 34d7 583c
000003f0: 5e83 e7bc 15de 48bd 34ac 473e e5c3 643d
-0.042625044 -0.0222622 0.072661184 0.112500355 0.108455725 -0.05094181 0.08149355 0.017217157
-0.03779691 0.007830707 -0.14566371 -0.03552722 0.05941617 0.018930187 -0.063937 -0.12317779
-0.048665617 -0.05995723 0.047793847 0.07432927 0.107753776 0.05629438 -0.0805179 0.020132618
0.042135566 -0.03092687 -0.09579367 0.028311297 0.060094435 0.107344836 -0.027491203 -0.03228791
0.037144795 0.0659403 0.12518531 0.07227664 0.06348228 0.0058467467 0.013165433 0.044710543
0.1215826 0.048972394 0.057290092 0.08678053 -0.03137369 -0.003189643 0.13537188 -0.023601571
-0.00094066607 -0.070654735 -0.038519654 -0.252144 -0.14775227 -0.02278478 0.08068359 -0.01727631
-0.22777973 -0.148718 0.06829792 -0.16374004 -0.007684042 0.10095251 -0.0041467566 0.0024442384
0.12070984 -0.046097666 0.054780804 0.043609973 0.08983251 -0.100994796 0.11338873 -0.014479806
0.05798992 -0.09041809 0.094755895 -0.16719985 0.043892413 -0.11933324 0.10670136 0.120767504
0.041422687 0.15504013 -0.011948215 0.060993943 -0.0937602 0.11738718 0.04971022 0.0665999
0.008993492 -0.10392256 0.13329823 -0.0011458667 0.041973077 -0.007598512 0.034097414 -0.1654037
0.106402695 -0.076328956 0.007858873 0.13373618 -0.025389884 -0.04968169 -0.0066219075 -0.07545216
-0.11770309 -0.050885987 0.11027842 0.16669244 -0.062530346 -0.095332004 -0.03330376 0.024310783
0.07504582 -0.059872307 0.068816446 0.11111442 0.17079988 0.079535425 0.04847616 -0.046436872
-0.010512523 0.05286397 0.0049901283 0.14782092 -0.08931105 -0.02392588 -0.14859313 0.029583992
-0.014105551 -0.0075683594 0.033336215 -0.089397214 0.042732745 -0.064847924 0.13223806 -0.05774613
0.0017134408 0.09222342 0.0926452 -0.015408855 0.081822254 0.12590393 -0.0742645 -0.04679419
0.0333997 -0.05824777 0.027893674 -0.12689608 0.030977061 -0.09073664 0.014917676 0.14005308
0.09785871 0.08870574 -0.0135811195 0.04377296 0.043148328 -0.086706705 -0.07775137 -0.061611567
0.040710453 -0.038645733 -0.04061101 0.09100209 0.008939148 -0.06439598 -0.06828418 0.05172834
-0.091544285 -0.043218683 -0.12949958 -0.10641857 0.08412019 -0.07662114 0.0757828 -0.011794021
0.0057461713 -0.10349078 0.032317065 0.009762408 -0.053437274 -0.17161514 -0.14613421 0.04938923
0.14907567 -0.057956047 0.0010225746 0.06955459 0.017407672 0.0806529 0.026983205 0.018585104
-0.07479117 -0.062611975 0.022656979 0.09282775 -0.10668804 0.00507112 -0.06749012 0.06196892
0.12766309 -0.11492517 -0.10108906 -0.01577343 -0.0698153 -0.06436832 0.009523544 -0.05417641
-0.016366387 -0.09490883 -0.0007558316 0.02328584 -0.030765234 0.09688343 -0.044290487 0.07251061
-0.1489579 0.107117444 -0.12581332 -0.023030506 -0.002142502 0.053773224 0.046211027 0.017832393
0.10705243 0.091157585 0.14215507 0.009193371 0.12758267 0.026726067 0.07980119 0.06346832
0.16612253 -0.018728163 0.07033366 0.14100234 -0.12223886 -0.016332544 -0.039287075 0.006454645
0.06602864 0.13288634 0.009944738 -0.13382508 0.02833383 0.13576855 0.055600822 -0.12607533
-0.06447569 -0.08316738 -0.086530656 0.013234902 -0.028260883 -0.04903992 0.19499284 0.055850882

fc3.bias f4 [32]
00000000: 49a6 0b3e c4b9 863d d701 943d 041d 70bd
00000010: 1e3d 2dbd f9bb 1c3e dcc3 c4bd b719 863d
00000020: aa49 89bd 7c48 8abd ea9a 283e e2c3 8abc
00000030: aa80 043e 9500 b03c 2800 8ebc 98d0 1c3c
00000040: 1708 3a3d 64fb 863c 0b92 ff3d 40e0 9a3d
00000050: 91bf f23d fda5 4d3e 2582 1f3e 59be 273e
00000060: c75f b33d 1edf 013e 61a5 3c3e 7d1e 0a3e
00000070: 7143 ccbd 39f0 d63d 2f76 083e 6b5a 103c
0.13637652 0.06578401 0.072269134 -0.05862142 -0.042294614 0.15306081 -0.0960767 0.065478735
-0.067035034 -0.067521065 0.16465345 -0.016939107 0.12939706 0.021484653 -0.017334059 0.009571217
0.04541787 0.016477294 0.12479027 0.075623035 0.11852945 0.20082851 0.1557699 0.16381206
0.087585025 0.12682769 0.18422462 0.13488193 -0.09973801 0.104950376 0.13326333 0.00881062

bn3.weight f4 [32]
00000000: 05c1 843f 5174 803f fbce 5f3f 4c0a 6b3f
00000010: aa2c 793f 3d27 893f 8e8e 7a3f 8fce 7e3f
00000020: df65 6b3f 32a4 8d3f 4c5c 7e3f 347e 883f
00000030: 6efc 7a3f e150 733f 3e8a 7a3f 2a0e 793f
00000040: 7ee9 6e3f 979c 803f 986b 6e3f 86a2 773f
00000050: ceae 823f cb98 703f 32a6 6a3f 037c 823f
00000060: bd19 7b3f 048f 863f 353d 813f 5bbf 7a3f
00000070: 43fd 833f 286f 6a3f 25a4 8f3f f51d 673f
1.0371405 1.0035497 0.874252 0.91812587 0.97333777 1.07151 0.9787377 0.99533933
0.9195232 1.1065733 0.99359584 1.0663514 0.9804143 0.95045286 0.9786719 0.9728724
0.9332503 1.0047787 0.93132925 0.96732366 1.0209596 0.93983144 0.91659844 1.0194095
0.9808615 1.0512395 1.0096804 0.97948235 1.0311664 0.9157586 1.1221968 0.90280086

bn3.bias f4 [32]
00000000: 3214 e43b a3ca 5b3e 2840 50be 7f1c 25be
00000010: 2daf 943d 8608 85be f1b2 58be aeab 453e
00000020: 9ca6 f43d a837 2b3e 2315 73be 6870 78be
00000030: 2bf7 99be b382 b6bd 3419 7abc ec1d 523e
00000040: 6e9e 313e cd7a eb3e b551 12bc 8bd9 733e
00000050: d882 ee3d 270c 1abd 929b 063c 390d f63d
00000060: f8a7 8d3d 912a 4a3e 337c e1bd 3c85 4abe
00000070: d726 5fbe eede abbd 43b1 b0be b975 063e
0.0069604153 0.21464019 -0.20336974 -0.16124152 0.07259975 -0.25983065 -0.2116201 0.19303772
0.11945841 0.1672045 -0.23738532 -0.2426163 -0.30071387 -0.08911648 -0.015264798 0.20519227
0.17345592 0.45992127 -0.008930613 0.23813455 0.1164605 -0.037609246 0.008215802 0.12014241
0.06916803 0.197428 -0.11010017 -0.19777387 -0.2179216 -0.0839213 -0.3451024 0.13130845

bn3.running_mean f4 [32]
00000000: 61c2 173f ba12 173f cef9 033f d20e 133f
00000010: 3c2d 063f cb5e 2d3f aabb 003f 6c53 333f
00000020: 5ae0 d83e 8006 093f c292 323f 2cde 153f
00000030: 4052 1e3f f8d7 e83e a682 383f ea3c 123f
00000040: 78b0 023f 3a12 153f fed9 033f f473 f63e
00000050: 140b 393f f655 1d3f 44be 123f 20a7 203f
00000060: 5055 103f 3e5c 2a3f a655 193f d2af 303f
00000070: c6ed 063f f1c4 153f 4160 263f 6e6a df3e
0.59280974 0.5901295 0.51553047 0.5744449 0.5241277 0.6772277 0.5028635 0.70049167
0.42358667 0.53525543 0.69755185 0.5854213 0.61844254 0.4547727 0.72074354 0.571242
0.5105052 0.58230937 0.51504505 0.4813534 0.7228253 0.6145929 0.5732157 0.6275501
0.56380177 0.66547 0.59896314 0.6901828 0.52706563 0.58503634 0.6499062 0.43635887

bn3.running_var f4 [32]
00000000: 60e5 243f ff29 133f 0424 143f 81df 473f
00000010: 49f6 253f 6eb2 5a3f e463 1c3f cb94 8c3f
00000020: c3d1 d93e fbb4 3d3f a91c 763f f2b3 343f
00000030: cff1 353f 30d4 083f cb6d 623f 0869 343f
00000040: 272f 033f d7a8 153f 9896 053f f41a c63e
00000050: 9a4a 603f 7d09 0b3f 4b40 033f df20 3b3f
00000060: 4e04 133f 065f 393f 8faa 0c3f 6167 3c3f
00000070: 308e 403f 5b79 ee3e a1e1 613f 2486 b93e
0.644125 0.57485956 0.57867455 0.78075415 0.64828926 0.8542851 0.6108992 1.0982908
0.42542848 0.7410428 0.9613748 0.70587075 0.71072096 0.5344877 0.8844878 0.70472765
0.51243824 0.58460754 0.5218291 0.3869244 0.8761383 0.5431135 0.5126998 0.7309703
0.57428443 0.7241062 0.5494775 0.73595244 0.7521696 0.46576962 0.8823491 0.36235154
