epoch400.pth (torch, 70686 bytes, 25 tensors)

fc1.weight f4 [128, 27]
000000 69 0e a7 bd 22 d9 ab 3d 92 bf b0 3d 04 29 29 3e
       -0.081570454 0.08391024 0.08630289 0.16519552
000010 ac b2 da bc e3 48 b0 3d 25 2c a2 bd 01 8e 54 3e
       -0.026696526 0.08607652 -0.07918576 0.20757295
000020 9d e2 c8 bc 85 53 3c be ce 7c 07 3e ea 2b 0d 3e
       -0.02452212 -0.18391235 0.13231203 0.13786283
000030 6d 89 3d be 00 96 c1 bd bf 4f cc bd 9f ef 7b 3d
       -0.18509455 -0.09452438 -0.09976148 0.061507817
000040 57 0f 26 be fe 71 fe 3d 35 5b 85 3b 4b be 38 be
       -0.16216789 0.12424086 0.0040697106 -0.18041341
000050 fd 63 48 bc 04 1c 47 3d 64 c5 17 be fa c3 27 3d
       -0.01223087 0.048610702 -0.14821392 0.040958382
000060 55 2c 29 3e f9 08 95 bc f0 3e 21 3d b0 56 0f 3d
       0.16520818 -0.018192755 0.039366663 0.03499478
000070 4d 47 c7 bc d0 1f 18 be 52 a3 56 3e 98 2b 94 3d
       -0.024325991 -0.14855886 0.2096074 0.07234877
000080 41 2f ea 3d 02 64 01 3e 2b c8 07 3e 5c b6 b1 3d
       0.11434794 0.12635806 0.13259952 0.086773604
000090 20 fa e0 bd 8e a0 64 3b 2e 07 70 bc 86 6f 5f 3e
       -0.109852076 0.0034885737 -0.014650149 0.21819887
0000a0 b1 0a c3 bd 65 74 81 3d 9b b2 eb 3d b0 9e 22 3e
       -0.095235236 0.063210286 0.11508676 0.15880847
0000b0 24 68 14 3e fa 08 2b 3e e6 35 1d bd 81 5b 4c 3e
       0.14492851 0.16702643 -0.03838148 0.19956781
0000c0 78 06 88 3d 63 83 bd 3c d0 d7 25 3d d2 6d 82 bd
       0.06641859 0.02313394 0.040489018 -0.06368603
0000d0 72 24 ad bd b1 66 22 3e ee 13 bc 3d 74 73 d4 3c
       -0.08454217 0.15859486 0.09183489 0.025933959
0000e0 ab 13 81 bd 3a 6f 8a 3c bf 2b 40 3d b6 5f 00 be
       -0.063025795 0.01689874 0.04691672 -0.12536511
0000f0 63 08 ae 3c 25 66 51 bc 59 6b 5c be 36 bc 07 3e
       0.021244233 -0.012780701 -0.21525325 0.1325539
000100 cf c8 8d 3d 11 68 e6 bd a7 1f 27 3e 8e 70 05 bd
       0.06923067 -0.11250318 0.16320668 -0.032578044
000110 33 59 73 bd 9b 08 ae bc 65 23 0a 3e 9e 4b 7a 3d
       -0.05941124 -0.021244338 0.13490064 0.06110727
000120 c1 f0 52 bd b9 73 45 be 67 2f 3d be 1a 82 a8 bc
       -0.051499132 -0.19282426 -0.18475114 -0.02056985
000130 cc 94 98 3d 35 66 8e 3c 05 a5 64 3e 25 fb 4c 3e
       0.07450256 0.01738272 0.22328575 0.20017679
000140 0a b4 ea 3d 86 35 ed bc c2 1b 80 3e fd 50 72 bc
       0.11460121 -0.028956186 0.25021178 -0.014789817
000150 2b 5e 7a bd b7 0f dc 3d 58 5c 0e 3e c5 db cd 3a
       -0.06112496 0.10745185 0.13902414 0.0015705755
000160 1d dd ac 3c 4b f4 a7 3d c2 cb ca 3d 6f 07 21 3c
       0.021101529 0.08200892 0.09902145 0.009828432
000170 64 f6 4a be 59 08 24 3d 61 fc e6 3d fc d0 2c 3e
       -0.19820553 0.040047023 0.11278606 0.16876596
000180 6e bb eb 3d f8 03 79 3d e5 86 75 bd c8 61 bb bd
       0.11510359 0.0607948 -0.0599431 -0.0914951
000190 4a 78 2d 3e e3 00 96 3d b4 0e fa 3d 5f 9a 0c 3e
       0.16940418 0.07324388 0.12209836 0.13730763
0001a0 2e 1e 3b 3e 9d 70 85 bd 84 93 65 bd 24 0d 41 3e
       0.18273231 -0.0651562 -0.056048885 0.18852669
0001b0 d6 d2 58 3e 83 08 8a 3c 0a 5a c2 3d 2c be c8 3d
       0.21174178 0.016849762 0.0948983 0.098018974
0001c0 cb dc 07 3d d9 ed 63 3b f1 de 21 3d ac f0 e6 3d
       0.03316955 0.003477922 0.039519254 0.11276373
0001d0 ad 8b 3c 3e 32 d8 8c 3b 14 e8 a4 3d 82 97 d0 bc
       0.18412657 0.0042982334 0.08052078 -0.02546287
0001e0 01 58 61 3d 58 ca 30 bc 8f a8 df bd b3 c4 a5 3d
       0.055015568 -0.01079043 -0.10920822 0.08094158
0001f0 d9 95 82 bd 01 a3 0a 3e 04 ec 43 bd 21 cd 09 be
       -0.063762374 0.13538744 -0.047832504 -0.13457157
000200 9c 9c 96 bc e7 2b 1a 3e 0c 66 bc 3d 6b 4b 00 be
       -0.018385224 0.1505581 0.091991514 -0.1252877
000210 43 8c 72 bd 68 94 19 3e b1 cb 36 be 2c 4a 18 be
       -0.059215795 0.14998019 -0.1785114 -0.14872044
000220 20 14 36 be bc dc bb 3d bf 5c 1a 3e 44 88 47 3e
       -0.17781115 0.09172961 0.15074442 0.19485575
000230 df 06 22 3d 93 df 38 3e e8 ec e4 3d 3e ad 41 bb
       0.039557334 0.18054037 0.11177999 -0.0029552723
000240 e3 c1 c6 bd f3 c4 1c 3e 79 ea 45 be 70 b9 09 3e
       -0.0970495 0.15309505 -0.19327725 0.13449645
000250 40 fd a1 3b de 21 5c 3e c9 93 66 bd 16 6c 3a 3e
       0.00494352 0.21497294 -0.056293283 0.18205294
000260 e9 ec 58 bd 64 c6 ea 3c 96 1b bd 3d a1 93 29 be
       -0.05296031 0.028659053 0.09233777 -0.16560222
000270 25 be 3b 3e 36 48 07 be 2b a9 ef 3d 21 43 07 3d
       0.18334253 -0.1321114 0.11702188 0.033023003
000280 b3 f2 81 bd 26 03 3e bd fb 21 b9 bc f2 28 ec 3c
       -0.06345119 -0.04638972 -0.022599211 0.028828118
000290 a1 07 80 be 39 83 d8 3a 61 c0 42 be e6 e5 07 39
       -0.2500582 0.00165186 -0.19018699 0.00012960247
0002a0 33 01 07 be 2b 69 00 3e 89 0d 5b 3e 5f 57 39 3e
       -0.13184051 0.12540118 0.21391882 0.18099736
0002b0 91 f8 89 3d b2 30 c7 3d c1 d5 e8 bc f9 4f f7 3c
       0.067368634 0.09726085 -0.028422238 0.030189501
0002c0 d0 41 8c bd 75 4d 00 be 25 a8 0e 3e c0 4c af 3d
       -0.0684849 -0.12529548 0.1393133 0.08559561
0002d0 cf c8 04 3e a9 06 b1 3c 5f 1c 07 3e e3 bf d5 3d
       0.12967227 0.021609621 0.13194416 0.1043699
0002e0 ad 6a 9e 3d 35 37 23 be 63 66 91 3d 3c 56 f7 bd
       0.077351905 -0.15939029 0.07099607 -0.12076995
0002f0 52 e6 02 be be 4e 4f 3e 03 68 0f bd 7e 76 15 bd
       -0.12783173 0.20244882 -0.035011303 -0.036489956
000300 ca 4d c2 3d 1f 35 35 bc 74 88 b1 bc ed 9e ab 3d
       0.09487493 -0.011060028 -0.021671511 0.08379922
000310 f9 bc 5e 3e 1f 59 c5 bd 97 7d 99 bd 30 38 00 be
       0.21751775 -0.09636139 -0.074946575 -0.12521434
000320 79 a1 f7 3c fa 5d 04 3e af e6 a8 bb 94 8c 6d 3d
       0.030228363 0.12926474 -0.0051544528 0.057995394
000330 e5 25 f0 3d 9d d4 44 be f9 50 dd bd 8d 28 72 3d
       0.11725978 -0.1922173 -0.1080646 0.059120703
000340 7a a6 5e 3e 3b 51 ab 3d 5c 12 75 bd dc 13 57 3d
       0.21743193 0.08365103 -0.059831962 0.052509174
000350 16 82 18 be 51 7d 52 be e4 b7 8f 3c eb ad c3 bd
       -0.14893374 -0.20555617 0.01754374 -0.095546566
000360 34 0d be 3d 2a 8b 7d 3e c3 5e ea bd b5 20 a3 bd
       0.09279862 0.24760118 -0.114438556 -0.07965223
000370 e3 7d 04 3d 9d 59 84 3d 98 63 b8 3c dc 99 78 3d
       0.032346617 0.06462405 0.022508428 0.060693607
000380 67 37 16 bd 31 08 12 3e 12 3e 2c 3e d8 b5 80 be
       -0.03667393 0.14260937 0.16820553 -0.25138736
000390 6a 7e 11 bd 80 16 c1 3c 78 bb 48 3e ea ba fb bd
       -0.03552095 0.0235703 0.19602764 -0.122915104
0003a0 21 91 0a 3d 8c b4 39 bd 89 06 91 bc 4c e2 b4 bb
       0.033829812 -0.0453382 -0.017703312 -0.0055201408
0003b0 c8 24 4f 3d 1f f9 ed 3d 28 e4 87 3b b0 b7 ea 3d
       0.050572187 0.11619782 0.0041470714 0.11460817
0003c0 c4 71 21 be e4 89 8e bc 6e bf 43 bd 0f 33 f1 3d
       -0.15766054 -0.017399736 -0.047789983 0.11777317
0003d0 ce 19 89 3d 09 48 09 be 1e e4 27 be be c0 5b 3e
       0.06694375 -0.13406385 -0.16395614 0.21460244
0003e0 ed 09 b4 bd f6 79 7e 3c 7a e1 3b be 7f 71 6a be
       -0.08790956 0.015532007 -0.18347731 -0.22894858
0003f0 db aa 1b 3e a5 45 42 be 74 39 54 3e f5 0e 43 be
       0.15201895 -0.1897188 0.20725042 -0.19048674

fc1.bias f4 [128]
000000 58 6d 85 bd 49 59 d8 3c 04 f8 b4 bd d9 65 95 3d
       -0.06514996 0.026409762 -0.08836368 0.072948165
000010 77 47 ae 3d 5b f5 f6 bb 0f df 18 be 61 b2 3a be
       0.085097246 -0.007536573 -0.1492884 -0.18232109
000020 3b 9b 76 bc 0e 88 78 3d c1 df ef 3c 8b 0c f9 bd
       -0.015051658 0.060676627 0.029281499 -0.121605955
000030 4d 49 04 3e bd fc af bd bc 7a cc 3d 1c 8e 10 3e
       0.12918587 -0.08593128 0.09984347 0.1411671
000040 02 bf 85 bc 3c 95 a9 3d 80 3a bc 3d 4b 0f 7a bd
       -0.016326431 0.08280417 0.091908455 -0.06104974
000050 6d a5 5a 3e 4c 69 68 bc e3 15 e9 ba f7 3b b4 bd
       0.21352167 -0.014185261 -0.0017783012 -0.088005
000060 81 22 2e 3e 3b 70 9b be df d6 9e bc 4c 9b 84 b9
       0.1700535 -0.30359063 -0.019389568 -0.00025292707
000070 43 ec 02 bd 3a 6b 16 be d7 65 63 bd 81 69 ce bd
       -0.031963598 -0.14689341 -0.055517044 -0.10078717
000080 04 31 07 3e 54 d7 e6 bd 42 bf 14 3d fe ff 0f be
       0.13202292 -0.11271539 0.03631521 -0.14062497
000090 fc 80 d8 3d 20 2e 0c 3e 2c 9e 89 3d b4 6f 26 3e
       0.10571477 0.1368947 0.06719622 0.16253549
0000a0 17 18 cf 3d 58 b6 ce 3d 70 0b f1 bd f8 68 92 3d
       0.10112017 0.10093373 -0.1176976 0.071489275
0000b0 c6 fa 78 bd 86 a8 fc bd d9 ad 8a 3d 28 48 17 be
       -0.06078603 -0.12336831 0.0677144 -0.14773619
0000c0 67 ba bc 3d 16 83 21 bc 80 b4 0e be 6a eb f1 bc
       0.09215241 -0.0098579135 -0.13936043 -0.0295312
0000d0 d5 b8 55 3d 2d f6 ab 3d 6d 12 2a bd c3 41 1c 3e
       0.052178223 0.08396564 -0.04152148 0.15259461
0000e0 07 9e 24 3d 2f 67 a7 bc 33 34 e1 3d d1 5f f1 bd
       0.04018977 -0.020434944 0.10996284 -0.11785854
0000f0 84 9b 0b bd 38 a5 96 3d dc 67 8e 3b ae 0a ea bd
       -0.034083858 0.07355732 0.004345877 -0.11427818
000100 30 4b c1 bd cd 56 85 3d bc ea 92 bd 50 83 28 be
       -0.09438169 0.065106966 -0.07173678 -0.16456342
000110 16 d3 58 3e 87 90 32 be 09 a2 11 be 43 9a 26 3c
       0.21174273 -0.17437945 -0.14221968 0.010168615
000120 cb 76 3f 3e e4 ec 7b 3e 03 fb f3 bd fa 71 0b 3e
       0.1869766 0.24602085 -0.11913111 0.13617697
000130 c7 19 ff 3d af 6f 29 bd 15 15 49 be bc ed 5b 3d
       0.124560885 -0.041366275 -0.19636948 0.053693518
000140 aa 54 12 be db 7e 70 3d 40 6e de 3d 10 b6 18 bb
       -0.1429011 0.05871473 0.10860872 -0.0023301877
000150 80 1f 11 3d a7 c6 ee bd 83 81 45 be 9f c1 91 bd
       0.03543043 -0.11658984 -0.19287686 -0.071170084
000160 6e 05 81 3c 9a c7 16 be 05 e9 1c 3e a4 2f 64 bd
       0.01574966 -0.1472458 0.15323265 -0.055709496
000170 34 45 f1 3c 57 37 21 3e f5 05 a1 bd d2 c2 ef bc
       0.029451944 0.15743767 -0.07862464 -0.029267702
000180 de 7d 9f bc f3 78 c2 bd f6 c0 a7 bd e5 85 fc 3d
       -0.019469198 -0.094957255 -0.08191101 0.12330226
000190 40 c0 21 3e 63 3a 76 be be 86 17 be 37 f2 f8 3c
       0.15795994 -0.2404571 -0.14797494 0.030388935
0001a0 7d 8b 4f 3e b2 67 43 be 71 d1 12 be ef 0b c9 3d
       0.20268054 -0.19082525 -0.14337708 0.09816729
0001b0 64 b9 23 bd 6c a6 df bd dc fb 20 3e b2 3f ba 3c
       -0.039971724 -0.10920414 0.15721077 0.02273545
0001c0 3f 8e cb bd 71 a2 66 3e c9 64 1b be 1c 94 30 bd
       -0.09939241 0.22522904 -0.15175165 -0.043109998
0001d0 d9 0e 39 3d f5 55 0f 3d 8b 4d 2f bc 6d 61 9b bd
       0.045180175 0.034994084 -0.01069964 -0.07586942
0001e0 d9 12 38 3e f8 a9 06 3e b6 7a 21 3d 06 04 44 3e
       0.1797594 0.13150775 0.039423667 0.1914216
0001f0 42 a1 bf bd f0 bd 19 3e 08 ae ca 3d 01 6b 66 3c
       -0.09356929 0.15013862 0.09896475 0.014063598

bn1.weight f4 [128]
000000 81 6a 75 3f aa b0 78 3f 5a ba 79 3f 61 58 7d 3f
       0.9586564 0.9714457 0.97549975 0.9896298
000010 55 d6 7d 3f 5b 6b 7a 3f 8d d7 89 3f 02 7b 78 3f
       0.9915517 0.9782006 1.0768906 0.97062695
000020 fb 18 6f 3f 66 27 83 3f 4e ff 79 3f c7 0b 83 3f
       0.9339749 1.0246398 0.9765519 1.0237969
000030 d2 38 69 3f 60 86 82 3f 75 77 88 3f c4 67 7c 3f
       0.91102326 1.0197258 1.0661455 0.98595834
000040 3e c3 86 3f 74 c7 82 3f 15 6b 89 3f c4 a0 86 3f
       1.0528333 1.0217118 1.0735804 1.0517812
000050 3f 2b 83 3f 6f 55 7e 3f 08 1d 82 3f c3 14 80 3f
       1.0247573 0.9934911 1.016511 1.0006336
000060 86 d8 7f 3f 61 4b 7b 3f 1d 3e 7d 3f f5 9f 73 3f
       0.99939764 0.98161894 0.989229 0.9516595
000070 f8 34 85 3f 4d e7 8e 3f 35 4e 84 3f 75 97 83 3f
       1.040679 1.1164337 1.0336367 1.0280596
000080 f1 d7 6f 3f ea 7a 82 3f 4c 87 7e 3f 2b 06 80 3f
       0.93688875 1.019376 0.99425197 1.0001882
000090 b1 77 80 3f d4 a3 83 3f f2 cc 85 3f 26 54 7c 3f
       1.0036527 1.0284371 1.0453169 0.985659
0000a0 82 88 6f 3f 56 4f 78 3f 4e 6a 7c 3f 4c c5 7c 3f
       0.9356767 0.9699606 0.9859971 0.9873855
0000b0 53 fc 85 3f 04 8b 81 3f 20 18 83 3f f4 50 7c 3f
       1.0467628 1.0120549 1.0241737 0.98561025
0000c0 00 9a 84 3f 30 60 73 3f 90 09 84 3f 06 ed 70 3f
       1.0359497 0.95068645 1.0315418 0.9411167
0000d0 72 d8 7c 3f eb 37 83 3f 7d fc 82 3f 73 28 7f 3f
       0.9876777 1.025144 1.0233303 0.99671096
0000e0 4b 02 7e 3f 09 26 84 3f ea 7a 83 3f 0f 78 6f 3f
       0.9922225 1.0324107 1.0271885 0.9354257
0000f0 2d d9 74 3f b3 3d 7a 3f c9 c0 7d 3f 42 c2 7b 3f
       0.95643884 0.97750396 0.9912229 0.9834329
000100 51 60 7c 3f c0 0f 87 3f 7f d8 7f 3f 41 90 72 3f
       0.9858447 1.0551682 0.9993972 0.94751364
000110 9e bc 81 3f 3b f5 75 3f 08 13 7f 3f b8 7e 7c 3f
       1.0135686 0.96077317 0.99638414 0.9863086
000120 e3 54 7c 3f 92 f5 7e 3f a7 b2 77 3f 20 86 66 3f
       0.98567027 0.9959346 0.96756977 0.9004841
000130 48 91 79 3f c3 4e 78 3f b5 bb 87 3f 00 8b 78 3f
       0.97487307 0.9699518 1.0604159 0.970871
000140 e2 0d 83 3f 24 87 73 3f 97 c4 69 3f a4 f1 86 3f
       1.0238612 0.95128083 0.913156 1.0542493
000150 03 4d 7e 3f e3 9b 6b 3f e2 eb 74 3f 7c ef 7a 3f
       0.9933626 0.9203474 0.9567243 0.98021674
000160 5b 59 81 3f 39 3c 7f 3f 5c eb 79 3f 71 e6 82 3f
       1.0105394 0.9970127 0.97624755 1.0226575
000170 4f c8 87 3f a5 0a 74 3f dd 17 84 3f da c2 73 3f
       1.0608004 0.9532874 1.0319782 0.95219195
000180 19 c9 82 3f 0d 42 74 3f f7 33 77 3f cf 3e 7f 3f
       1.021762 0.95413285 0.9656367 0.99705213
000190 07 de 7d 3f de c4 80 3f 4e f1 80 3f 21 f4 7d 3f
       0.9916691 1.0060079 1.007364 0.99200636
0001a0 6d b3 80 3f d4 3b 74 3f 2d ef 80 3f 8d 1b 8a 3f
       1.0054756 0.9540379 1.0072991 1.0789658
0001b0 14 86 7a 3f dd 8e 7d 3f b7 d9 84 3f c8 d6 74 3f
       0.97860837 0.9904612 1.0378941 0.9564023
0001c0 dd 24 80 3f c2 35 85 3f 7c 33 7b 3f dc 48 8d 3f
       1.001125 1.040703 0.98125434 1.103786
0001d0 2b 82 77 3f aa e3 7c 3f e5 47 85 3f d1 db 78 3f
       0.96682996 0.9878489 1.0412565 0.97210413
0001e0 21 ae 7e 3f 61 ac 75 3f 6d 41 8e 3f 4c c4 8b 3f
       0.9948445 0.95966154 1.1113716 1.091928
0001f0 23 b6 7c 3f ce 5c 64 3f c0 60 86 3f 7e 02 81 3f
       0.9871542 0.8920411 1.0498276 1.0078886

bn1.bias f4 [128]
000000 31 b7 e5 3c 68 e5 45 3c c2 fe e0 bc a4 bb f3 bc
       0.028041454 0.0120786205 -0.027465228 -0.02975256
000010 32 9d fb 3c bd 69 85 bd 07 b0 84 3d 8c a8 54 3c
       0.030714605 -0.065143086 0.06478887 0.012979638
000020 bc 1f 63 3d c5 c5 e1 bc 45 9c de bc e1 e6 a6 3c
       0.055450186 -0.027560124 -0.027174124 0.020373764
000030 88 8d 08 bd 90 19 c9 3c fa d0 49 3c c7 80 46 3d
       -0.0333381 0.024548322 0.01231789 0.048462655
000040 4d 8b d4 3a 98 80 34 bc 76 fa e0 3c 77 cc 88 3d
       0.0016215831 -0.011016987 0.02746318 0.066796236
000050 66 79 48 3c 19 b5 c0 3d 7b 87 a6 bc d3 8e 65 3c
       0.012235975 0.09409542 -0.020328274 0.014011103
000060 75 1e 83 3c 23 ba 80 3c 60 55 97 bb c1 5b 0c bc
       0.016005734 0.015713757 -0.004618332 -0.008566798
000070 09 c2 79 bc ba 66 1b 3c 2e b8 a6 3d f2 e2 06 bd
       -0.0152440155 0.009484941 0.08140598 -0.032931276
000080 da 6d 61 bd bc 19 81 bb 46 fb 3b bd ff 3d 8b 3d
       -0.055036403 -0.0039398354 -0.04589393 0.06798934
000090 5f 94 b7 3c 47 d0 37 3c 08 f9 86 bd 7f 33 3c bd
       0.022409616 0.011219091 -0.06590468 -0.045947548
0000a0 b7 ba ab bd c8 7e 18 3d 2f d4 a2 3d f9 e3 1b 3d
       -0.083852224 0.037230283 0.07950627 0.03805921
0000b0 20 1f e8 3c e5 f6 32 3e fe 18 c7 bc 45 87 e8 3c
       0.028335154 0.17476995 -0.02430391 0.028384814
0000c0 c7 cb 7d 3d 92 83 c4 3c b1 76 4c 3b cb ac 34 3d
       0.061961915 0.023988519 0.0031198675 0.0441101
0000d0 5c 44 14 bc f6 3b e5 3c d3 68 9e 3d 0a bc b5 bc
       -0.009049501 0.027982693 0.077348374 -0.02218439
0000e0 5e be 25 be 22 dc be bc cf 30 cc bd dd cf fe 3c
       -0.161859 -0.023298327 -0.09970247 0.031104976
0000f0 78 c0 bc 3b 82 ee 90 3d 8c a1 4f bd f0 b1 a5 bd
       0.0057602488 0.07076742 -0.050691172 -0.080905795
000100 b0 bb 0d 3c c3 f5 16 bd f6 4b 06 3c 11 b0 01 bd
       0.008650705 -0.03685547 0.008196821 -0.03166205
000110 66 36 bb bd dd e6 99 3c 4a 77 27 3d 77 93 83 bc
       -0.09141235 0.018786842 0.040885247 -0.016061528
000120 36 dd b6 3c 6c f1 01 be 15 fb 31 bd 6d 00 62 bd
       0.022322278 -0.12689751 -0.04345234 -0.055176187
000130 80 eb f1 bc b1 ab c0 bc 53 ee 92 bd da f4 c1 3d
       -0.02953124 -0.023519369 -0.07174363 0.0947053
000140 3c 0d e1 3b 97 19 03 3d 1b 07 a6 3d c2 fd 44 bd
       0.0068680327 0.032006826 0.08106824 -0.048093565
000150 15 93 07 3c 66 59 2f bd 11 e4 c7 3d 71 c7 53 3d
       0.008274813 -0.042809866 0.09760297 0.051703874
000160 9d 87 67 3d 50 7e 2c 3e 9d 5a e8 bc 9d 1e 6e bd
       0.056525815 0.1684506 -0.02836352 -0.058134664
000170 b3 e9 ef 3c 10 d0 bb bc 92 6c 17 3c f8 5d 95 bd
       0.029286241 -0.02292636 0.009242194 -0.07293314
000180 1b c8 db bc 9f c2 30 3d 8e b1 64 bb 06 b1 15 bd
       -0.026828816 0.043154355 -0.003489587 -0.036545776
000190 ff 34 05 3d 18 94 e4 bd 30 32 ce bc 34 cd a1 3d
       0.032521244 -0.11161059 -0.025170416 0.079004675
0001a0 4c 9e ea 3d d7 e5 b1 bd 78 8a c5 bc 9a d2 d1 bd
       0.11455974 -0.086864166 -0.024113879 -0.10245247
0001b0 09 9b 29 3c 8e 78 50 bd 3c 25 8f bd 19 73 7c bd
       0.010351905 -0.05089622 -0.06989524 -0.061633203
0001c0 6e 08 83 bc 19 59 4b bd 91 62 b4 bb 92 84 2c bc
       -0.01599523 -0.049645517 -0.005504914 -0.010529654
0001d0 b5 05 5e bd c5 ef 80 3d 37 60 da bc 56 8e 40 bd
       -0.05420466 0.062957324 -0.026657207 -0.047010742
0001e0 75 15 dd bc f8 19 a9 bd 70 47 2d 3d 2a 54 95 3c
       -0.02698777 -0.08256906 0.042304456 0.01822861
0001f0 f7 df 12 bd 3e 45 03 bd 66 af 5b bd 39 63 c5 ba
       -0.03585812 -0.032048456 -0.05363407 -0.0015059478

bn1.running_mean f4 [128]
000000 48 c3 35 3e bc c7 90 3e 0e 00 26 3e c2 08 ce 3e
       0.17750275 0.28277385 0.16210958 0.40241057
000010 6e 5e 55 3e 84 9b 30 3e 19 86 25 3e d8 ab 45 3e
       0.20836803 0.17246825 0.16164435 0.19303834
000020 0c 85 70 3e ab 70 9d 3e 2b 70 a8 3e fe c7 52 3e
       0.23488253 0.3075002 0.32898077 0.20584103
000030 1c 77 d0 3e 91 6d 51 3e b1 05 cf 3e ee a9 9a 3e
       0.40715873 0.20451953 0.4043403 0.3020777
000040 34 06 4d 3e 16 3b 98 3e 8d 4b 7c 3e 22 b1 e8 3d
       0.20021898 0.2973258 0.24638195 0.113619104
000050 15 9d 9f 3e d4 a2 1c 3e cf 0d 41 3e 03 45 3e 3e
       0.31174532 0.15296489 0.18852924 0.18581013
000060 18 46 98 3e 8a 55 c6 3d 12 59 4f 3e 24 bd a1 3e
       0.29740977 0.09684284 0.20248821 0.31589615
000070 9d 2e 44 3e 53 2c 17 3e 88 cc 56 3e b2 bd 14 3e
       0.19158407 0.14763002 0.2097646 0.14525488
000080 18 c1 e9 3e c2 63 62 3e f2 97 99 3e e7 77 0b 3e
       0.4565513 0.22108367 0.29998738 0.13619958
000090 61 c8 75 3e fc c7 91 3e fe 56 84 3e 8c 1d f0 3e
       0.2400222 0.28472888 0.2584762 0.46897542
0000a0 29 3b fb 3e b4 94 90 3e 24 a3 14 3e d4 84 8c 3e
       0.49068573 0.2823845 0.14515358 0.2744509
0000b0 8a 67 d1 3e 91 84 fe 3d be 4e b0 3e f3 1f 8b 3e
       0.40899307 0.12427629 0.34435076 0.27172813
0000c0 80 6d a5 3e 8b 02 82 3e 13 16 10 3e 00 ab 56 3e
       0.32310104 0.25392565 0.1407092 0.20963669
0000d0 6f 37 7b 3e 08 c0 89 3e 79 d1 54 3e 56 b8 c4 3e
       0.24532865 0.2690432 0.20783032 0.38421887
0000e0 3e 99 ba 3e 32 a8 76 3e 77 08 96 3e cd 42 2f 3e
       0.3644504 0.24087599 0.29303333 0.17115326
0000f0 7c 45 5d 3e ab 18 be 3e f8 32 a1 3e 2c d2 43 3e
       0.21608537 0.37128195 0.314842 0.19123143
000100 e4 67 37 3e 9e c9 69 3e 52 2f 6f 3e 05 6f 74 3e
       0.17910725 0.22830817 0.23357895 0.23870476
000110 b0 d7 bf 3e 42 12 7c 3e 40 c9 7a 3e 1f fc 8b 3e
       0.37469244 0.2461634 0.24490833 0.2734079
000120 26 6d b6 3e 78 01 cc 3e 48 50 44 3e 68 97 ba 3e
       0.3563015 0.3984487 0.1917125 0.3644364
000130 5b 5f a7 3e 0a 7e af 3e 3e c7 e5 3d 85 56 80 3e
       0.32689938 0.34275848 0.11219643 0.2506601
000140 3c e0 0f 3e ed 16 b3 3e 30 a6 9b 3e 66 31 7d 3e
       0.14050382 0.34978428 0.30400229 0.24725875
000150 4c d8 81 3e b2 0a 79 3e da e0 8b 3e fb d8 59 3e
       0.25360334 0.24320486 0.27319986 0.21274178
000160 0b fe 66 3e 7f dc 16 3e 04 cf be 3e df 8a 1f 3e
       0.22557847 0.1473255 0.37267315 0.15580319
000170 a7 d8 60 3e 8e c9 a0 3e 1e 0b 14 3e c1 67 5f 3e
       0.21957646 0.31403774 0.14457366 0.21816923
000180 c5 d4 4f 3e fd fe 47 3e 02 d2 3e 3e 7d e5 8a 3e
       0.20296009 0.19530864 0.18634799 0.2712821
000190 b8 d0 a3 3e 7c 82 39 3e 8a 38 fc 3d 73 86 72 3e
       0.31995177 0.18116182 0.123154715 0.23684101
0001a0 4e 60 a2 3e 8e c9 45 3e 8d 75 31 3e c6 71 89 3e
       0.317141 0.19315168 0.17329998 0.26844615
0001b0 02 03 41 3e fe 63 7f 3e 3f ce a1 3e be 54 73 3e
       0.18848804 0.24940488 0.31602666 0.23762795
0001c0 a4 cd 8b 3e f6 84 a5 3e 13 2a 1b 3e 72 f9 24 3e
       0.2730533 0.32328004 0.15152769 0.16110781
0001d0 92 60 da 3e 16 7a 82 3e 51 fc 79 3e 29 81 8a 3e
       0.42651802 0.2548377 0.24412657 0.27051666
0001e0 30 64 71 3e ba 9b 9f 3e 90 91 7b 3e bd 09 86 3e
       0.23573375 0.31173497 0.24567246 0.26179305
0001f0 96 df 20 3e 3d 4e d7 3e b5 3f 8d 3e db 0b 2f 3e
       0.15710291 0.4205188 0.27587667 0.17094366

bn1.running_var f4 [128]
000000 d1 c7 94 3d 47 56 a1 3e 3a c6 89 3d 93 ac b3 3e
       0.072646745 0.31511137 0.06727262 0.350926
000010 de b1 04 3e 7d 43 7d 3d 4f 81 a9 3d 57 e6 0c 3e
       0.12958476 0.06183194 0.08276617 0.13759743
000020 c2 2f 27 3e 42 51 12 3e b1 57 31 3e 18 7f 15 3e
       0.16326812 0.1428881 0.17318608 0.14599264
000030 03 67 ab 3e de c3 33 3e d1 bb 67 3e cb ba 2d 3e
       0.3347703 0.17555186 0.2263024 0.16965787
000040 ae 24 98 3d da 6d 14 3e 94 3b f5 3d ea c7 11 3d
       0.07428871 0.1449503 0.11974254 0.035591044
000050 5d 51 dd 3d dc 4c 4d 3d 84 95 90 3d af 55 93 3d
       0.108065344 0.050122127 0.07059768 0.07194077
000060 53 c6 14 3e 65 9e 1d 3d b9 26 c3 3d 48 53 67 3e
       0.1452878 0.038481135 0.0952887 0.22590363
000070 8b ce ac 3d 2a d1 4d 3d e1 07 b0 3d ef c8 3f 3d
       0.084378324 0.050248303 0.08595253 0.046822485
000080 b2 ae a8 3e 76 e6 2d 3e cc 29 38 3e 18 96 9b 3d
       0.32945782 0.16982445 0.17984694 0.075969875
000090 db 6c c7 3d 8a 9b e5 3d 39 46 d5 3d da 61 73 3e
       0.097375594 0.11211307 0.104137845 0.23767796
0000a0 ca 99 c0 3e 1a f2 3a 3e 21 d4 76 3d 30 93 27 3e
       0.37617332 0.18256417 0.060260896 0.16364741
0000b0 1d 33 ba 3e a2 a7 2d 3d e2 3f 18 3e b0 cd 4b 3e
       0.3636712 0.042396195 0.1486812 0.19902682
0000c0 48 67 39 3e ba af 0a 3e 4e a3 43 3d 46 33 cc 3d
       0.18105805 0.13543597 0.04776316 0.09970717
0000d0 c7 0c f3 3d e6 c6 10 3e d0 e2 e1 3d 1e d0 88 3e
       0.118676715 0.14138374 0.11029589 0.2672128
0000e0 0a 56 8b 3e 2b 5e 03 3e 9b d9 ed 3d 75 2c a1 3d
       0.2721408 0.12828891 0.116137706 0.07869808
0000f0 d1 e0 dd 3d 3f fd 55 3e 6e 56 3f 3e 0e 2d e1 3d
       0.10833896 0.20897387 0.18685314 0.109949216
000100 ae 30 cf 3d 6e 72 f5 3d 70 1c 21 3e 7a 4b 4c 3e
       0.10116707 0.11984716 0.15733504 0.19950667
000110 2c 79 3b 3e 66 47 18 3e 93 3d 25 3e 3e 63 fd 3d
       0.18307942 0.14870986 0.1613677 0.123724446
000120 d8 54 0f 3e 8a ab 55 3e 9b d1 c3 3d 51 f8 6c 3e
       0.13997209 0.20866218 0.095614634 0.231416
000130 0b 42 38 3e 3f f2 45 3e e8 bb 3b 3d da 6e fb 3d
       0.17993943 0.19330691 0.0458335 0.12277003
000140 f2 48 7e 3d 85 15 7a 3e 2b 3e 17 3e c6 3f 0c 3e
       0.062081285 0.24422272 0.14769809 0.13696203
000150 e1 c6 f0 3d 76 0f 21 3e 7a 25 b8 3e 31 c1 26 3e
       0.11756683 0.15728554 0.35966092 0.16284634
000160 24 09 d8 3d a9 09 6d 3d d2 4c 47 3e d0 9d a1 3d
       0.105486184 0.05787054 0.19462898 0.078914285
000170 20 41 c1 3d 4a 30 36 3e 15 63 81 3d 42 94 fb 3d
       0.0943625 0.17791858 0.063177265 0.12284137
000180 28 05 fb 3d f2 6c 10 3e dd 49 a6 3d 4b 98 f2 3d
       0.12256843 0.1410406 0.08119557 0.11845454
000190 88 de 0d 3e 85 ea eb 3d 74 af 8e 3d 4c aa de 3d
       0.1385442 0.115193404 0.06967059 0.10872325
0001a0 81 31 03 3e ea 82 13 3e 98 47 fb 3d 97 e8 15 3e
       0.12811853 0.14405409 0.12269515 0.14639507
0001b0 d6 c8 99 3d ee c5 09 3e e6 8b f6 3d 24 24 02 3e
       0.075090095 0.1345441 0.12038402 0.12709099
0001c0 a4 24 85 3e fc 98 f3 3d 16 8e 99 3d 17 4f 55 3d
       0.26004517 0.11894414 0.07497804 0.05207738
0001d0 c8 c7 b5 3e cf 24 de 3d ee 19 cf 3d 69 3c 14 3e
       0.35503983 0.108468644 0.101123676 0.1447617
0001e0 80 34 9c 3d bd de 1f 3e b9 5c e4 3d d2 b9 94 3d
       0.07627201 0.15612312 0.11150498 0.07262005
0001f0 69 8e 8f 3d 03 08 70 3e 77 b6 f2 3d 03 db 81 3d
       0.070095845 0.23440556 0.11851209 0.06340601

fc2.weight f4 [64, 128]
000000 e4 b3 be 3d 42 01 b1 3d 35 10 4c 3c bf 8c 63 3d
       0.09311655 0.08642818 0.012455036 0.055554148
000010 b0 37 66 bd 8d e3 2c bd a1 48 0f 3d e2 58 97 3d
       -0.05620545 -0.042209197 0.034981374 0.0739
000020 ec 44 bc 3d 88 15 14 3e f3 e0 ee 3c cf 0f 44 3d
       0.09192833 0.14461339 0.029159999 0.04786664
000030 25 ae 09 3e f0 06 8c 3d ff f2 a1 bd 36 71 a9 bd
       0.13445337 0.06837261 -0.07907676 -0.082735464
000040 9e ba 9e bd 39 f1 79 3c 80 59 de bd 51 70 1b 3d
       -0.07750438 0.015255266 -0.108569145 0.03794891
000050 70 4c 37 3d 04 f1 da bd 56 15 b8 bc 4b 40 42 3c
       0.04475063 -0.10690501 -0.022471111 0.011856149
000060 09 8a 2a be 5f bd 0d bc fe 21 91 bc b3 9f 09 3d
       -0.16654219 -0.008651107 -0.017716404 0.033599567
000070 5b e4 9a 3c e5 58 e7 3d 03 6f b3 bb 16 5e de bc
       0.018907716 0.11296252 -0.00547588 -0.027144473
000080 32 52 23 3e 95 60 15 3d 8a ce 86 bd 19 5c 7a bd
       0.15949324 0.03646906 -0.06582363 -0.061122987
000090 1b b1 4b 3c eb 30 1a bd b8 db 08 3e 17 be 00 3d
       0.012432362 -0.037644308 0.13365066 0.031431284
0000a0 13 e4 de bc 18 05 74 3b 4c 3f 55 bc 66 90 6b bb
       -0.027208364 0.0037234481 -0.013015579 -0.0035944222
0000b0 64 2c 0d 3d f7 bf bf bd 05 9c af 3d 96 32 17 3c
       0.034466162 -0.09362786 0.0857468 0.009228369
0000c0 d5 71 e3 bc ca 92 88 3d 58 fe db bd b3 71 2a bc
       -0.02776424 0.06668623 -0.107418716 -0.010403085
0000d0 9c f9 2b bd e7 81 b0 bd 36 3e 7f 3c d8 12 a4 bd
       -0.041986093 -0.08618527 0.015578797 -0.08011407
0000e0 f4 66 53 bd ee f0 e5 3d 68 af f0 39 a9 d9 6d 3c
       -0.051611856 0.11227594 0.00045907055 0.014517226
0000f0 15 c8 8e 3d ce a2 ed 3c f7 3a 0c 3c d9 eb 5c bd
       0.06971756 0.029008295 0.00855898 -0.05393586
000100 44 57 15 bd 11 2f 2f 3d 36 76 02 bd 10 62 a1 3d
       -0.036460176 0.042769495 -0.031851016 0.07880032
000110 f7 2c 61 3c 8d 57 03 3e 04 ac 48 bd 08 8b a8 3d
       0.013743631 0.12826367 -0.048992172 0.08229643
000120 18 06 75 bd e2 38 24 bc 9b 6c 00 3e be ba 2f bc
       -0.059820265 -0.010023328 0.1254143 -0.010725675
000130 a2 21 5c 3b 41 44 c7 3d f6 01 f1 3c 3c 38 2f 3d
       0.0033589383 0.09729815 0.02941988 0.04277824
000140 9c 12 8d bd cc 56 35 3d 7a bc a1 3c 73 d2 e7 bc
       -0.06888315 0.04427223 0.019743193 -0.028298592
000150 11 3f 1f 3d 9a 12 e6 3d 53 48 a9 3d 7e 31 e4 bb
       0.038878504 0.11234017 0.08265748 -0.0069639077
000160 d3 cc ae 3c ce 39 2c 3d 13 11 91 3d 19 70 e8 bd
       0.021337902 0.042047314 0.07083335 -0.11349506
000170 c6 a4 8c bd 32 4b bc bc 86 50 eb bc 30 0d 8b bd
       -0.068673655 -0.022985075 -0.02872492 -0.06789625
000180 6b d9 bf bd 65 d7 c0 3c 90 32 0b bd 0d 6d a2 bd
       -0.09367641 0.023540208 -0.033983767 -0.07930956
000190 84 0d 77 3d 31 2c f2 3c e2 b6 82 3c 75 c0 ee 3b
       0.060315624 0.029562088 0.015956346 0.0072861263
0001a0 97 50 7f 3d c4 cc 79 bd a6 66 9a bd 2e 58 86 3d
       0.062332716 -0.060986295 -0.0753911 0.06559788
0001b0 8e d3 cb 3c 61 18 48 bd 19 77 6e 3d e8 5d 2b 3d
       0.02488115 -0.048851375 0.05821905 0.041837603
0001c0 8f cf 32 3d 1c 74 51 bd 0d c5 3f 3d bc 98 f7 3d
       0.043654975 -0.05113612 0.04681878 0.12089679
0001d0 da fa 83 3c 1f ee 1a be 96 11 ee 3d cf 69 91 3d
       0.016110826 -0.15129898 0.11624448 0.071002595
0001e0 6e 70 e4 bd 0c 2d 02 bd 8c 34 95 bd bb 7d 97 bd
       -0.11154257 -0.03178124 -0.07285413 -0.07397028
0001f0 c9 bd a0 3b ee 3c 89 3c f4 29 7f 3d bd 39 9a 3c
       0.0049054367 0.016752686 0.06229587 0.01882636
000200 8c 0a a1 bd d0 a0 9a 3d 39 02 98 bd 01 48 19 bd
       -0.0786334 0.07550204 -0.07422299 -0.037422184
000210 c9 3b 3b 3d 25 7b 15 bd 7f e2 b9 bb 3e b7 0a 3e
       0.045711312 -0.036494393 -0.0056727524 0.13546464
000220 01 ca 6c bd 0d c1 bb 3d d0 d2 98 3c e7 ab eb 3c
       -0.057809833 0.09167681 0.01865521 0.028768493
000230 97 7c a4 3c 0d 67 56 3d f1 ab 97 bd d5 39 7f bc
       0.02007894 0.05234437 -0.07405842 -0.015577753
000240 34 e6 e2 3d eb b3 16 3d 55 98 b5 bd f3 18 04 3d
       0.11079064 0.036792677 -0.08866946 0.032250356
000250 6e 03 23 bd 79 b5 e7 bc 79 34 0e bc 31 44 a2 3d
       -0.039798193 -0.028284775 -0.008679503 0.07923163
000260 be 03 de 39 4e 94 25 3d d5 f3 4d 3d 38 ad 11 bd
       0.00042345928 0.040424637 0.050281364 -0.035565585
000270 cd bf 28 3d f1 62 bf 3d 2f c0 8e 3d fc eb e1 3d
       0.04119854 0.093450435 0.0697025 0.110313386
000280 4d 83 57 3b ea 69 01 3b f7 48 d1 bb 96 b9 8d 3d
       0.0032884658 0.0019746968 -0.006386872 0.06920163
000290 18 16 4a 3d e9 c8 a2 3d fd 66 8b bd 4c d9 cb 3c
       0.049337476 0.07948477 -0.06806753 0.024883889
0002a0 38 ba 81 bc 9e da be 3d 62 58 a6 bb c5 7b e5 3c
       -0.015835866 0.09319042 -0.005076454 0.02801312
0002b0 42 44 50 3c b9 66 eb 3d 1d 47 2c bd 72 ea 9d bd
       0.012711586 0.11494202 -0.042060006 -0.077107325
0002c0 43 2e ae 3c f1 ec ce 3d 63 db 3b 3c 80 85 14 3d
       0.021262294 0.10103787 0.01146588 0.036260128
0002d0 37 24 d2 3d 93 e5 ab bd d2 57 74 3d ca a9 5e bc
       0.10260814 -0.08393397 0.059654064 -0.013590286
0002e0 cf 13 1b 3d 75 e1 ea 3d 73 4c 01 3d 9a ce ba bc
       0.037860688 0.11468784 0.03156705 -0.022803593
0002f0 12 b8 a3 bc 97 65 fe 3d 6d ea 8c 3d 33 da 92 3d
       -0.019985233 0.124217205 0.06880651 0.071705244
000300 15 35 06 bd 4f b1 24 3c 0e c6 68 bd 62 41 32 bc
       -0.032765467 0.010052039 -0.056829505 -0.010879846
000310 eb 8b 7f bd e9 74 a4 bd fd e4 4e bd 11 5a 24 bd
       -0.062389296 -0.08030111 -0.05051135 -0.040124957
000320 6f 2a 8a 3d 7d 6e 07 3d 95 7a 4d bd b6 be 1b 3d
       0.06746375 0.033064354 -0.05016573 0.038023673
000330 f0 e4 cc bb 9a b5 cb bc 86 ad c3 3c a0 3c a4 bc
       -0.0062528774 -0.024866868 0.023886453 -0.02004844
000340 de a1 d6 3d c5 a7 0e 3c cb 10 32 bd ba de 8f 3d
       0.104800925 0.008706992 -0.043473046 0.070249036
000350 bd 75 0d 3d 1f 13 83 3d e7 7b 32 bc 9a 1b 69 3d
       0.034536112 0.064001314 -0.010893798 0.05691109
000360 f6 e7 b5 3d 4e ab f8 bc 75 44 43 3d 25 19 92 bd
       0.08882134 -0.030355122 0.047672708 -0.07133702
000370 30 8d 0b 3e 47 fd 8f bd 1d e0 a8 3c e3 fe f0 3c
       0.13628078 -0.07030731 0.020614678 0.029418414
000380 af 47 07 bd 1c 8b bd bc 0f 41 13 3d 93 a8 02 3e
       -0.033027347 -0.023137622 0.035950717 0.12759618
000390 68 c9 20 3d 49 91 c9 bd 71 b2 57 3d 54 37 2e bd
       0.039254576 -0.09842164 0.05266041 -0.042533234
0003a0 97 94 fc 3c 88 34 78 3c ef cc ab bd cf fd 70 3d
       0.030832572 0.015149243 -0.08388697 0.0588358
0003b0 ae 6b 60 bc ff 1e 91 bd 93 6f d1 bd 3a 3e fc 3c
       -0.013697548 -0.0708599 -0.10226359 0.03079139
0003c0 0c f1 54 bc 03 6f 0f 3d 1c f4 f4 3c 60 4d a2 bd
       -0.012996923 0.03501798 0.029901557 -0.07924914
0003d0 e5 2d 98 bd 1a 85 8d bd 55 13 88 3d c4 d9 5c bd
       -0.07430629 -0.06910153 0.06644312 -0.053918615
0003e0 bc 6f f0 bd 48 e5 3a bd af 43 ab 3c e9 47 dc 3d
       -0.11740062 -0.045628816 0.020906297 0.10755903
0003f0 6c 5c 31 bd a4 6b 91 bc 02 58 d0 bd b2 c5 ef 3d
       -0.04330103 -0.017751522 -0.10173036 0.11707629

fc2.bias f4 [64]
000000 9e 2c 81 bd 34 25 ae bd 04 a0 84 3d e7 96 8a bd
       -0.06307338 -0.0850319 0.06475833 -0.067670636
000010 5a 63 34 3d aa c2 97 bc ef 63 53 bc 04 a1 3c bd
       0.04404006 -0.01852544 -0.012902244 -0.046051994
000020 8b 25 9c 3b 3d 59 5f 3d 9d ff 22 bd de 74 0b 3d
       0.0047652177 0.054528464 -0.039794553 0.034047
000030 bc a8 29 bd a5 9d f1 3c 60 0c fc 3c 44 a9 6c bb
       -0.041420683 0.029494116 0.03076762 -0.0036111632
000040 bc 4c 63 3d 37 e0 ff 3c 23 ab 82 3d 7c ea 51 bc
       0.0554931 0.031234844 0.06380298 -0.012812253
000050 94 5b b2 bd 11 69 9d 3d 31 24 58 bd 45 b1 81 3c
       -0.087088734 0.076860555 -0.05276889 0.015831599
000060 e1 65 53 3a 11 c3 aa 3d 94 e2 59 bc 64 59 46 3d
       0.00080641924 0.08337987 -0.013298649 0.048425093
000070 16 f5 83 39 45 7a 56 bc b7 d2 bd bc 3b 60 05 bc
       0.0002516887 -0.013090675 -0.023171766 -0.008140619
000080 30 45 5b 3d 1f 97 77 bc 79 25 dd bc ce 72 9a bd
       0.05353278 -0.015111714 -0.026995407 -0.075414285
000090 c3 0b 58 3d b1 c2 99 3d f2 dc 95 3d be 9e 95 3d
       0.05274559 0.075078376 0.073175326 0.07305668
0000a0 43 84 a9 3d 2b 5f e1 3b 08 ec 55 3d dc fa 03 bd
       0.0827718 0.0068778 0.05222705 -0.03222166
0000b0 21 92 fb 3d 02 1a 8b bd 44 c1 aa bd c3 ef 5f 3d
       0.12283731 -0.0679207 -0.08337644 0.054672014
0000c0 df 35 14 3b 94 2f a4 3c 07 39 6e bd 35 73 ed 3d
       0.0022615117 0.020042218 -0.058159854 0.115942396
0000d0 15 b8 98 bd 63 9d 80 bd 7d d7 4f bd 98 20 33 3b
       -0.07456986 -0.06280019 -0.050742615 0.002733266
0000e0 f2 2a 0a bd 67 e8 4b 3e d0 10 e1 3c 0f 99 87 3d
       -0.033732362 0.19912873 0.027473837 0.066209905
0000f0 cc 37 cb bd d4 32 89 3d d0 46 63 3d e4 5f c2 bc
       -0.09922752 0.06699148 0.055487454 -0.023727365

bn2.weight f4 [64]
000000 3d c2 81 3f 62 cf 7f 3f c8 f3 81 3f cb f1 7b 3f
       1.0137402 0.99925816 1.0152521 0.9841582
000010 d9 c4 6a 3f b5 b8 89 3f 8e 15 72 3f bb 3e 72 3f
       0.91706616 1.0759493 0.9456414 0.9462697
000020 f2 8c 80 3f fe 97 84 3f fc 6a 61 3f db dd 6e 3f
       1.0043013 1.0358884 0.8805387 0.93307275
000030 f1 c9 82 3f 45 e0 81 3f b6 61 84 3f 38 46 86 3f
       1.0217878 1.0146567 1.0342319 1.0490179
000040 aa e0 7e 3f 8c ef 6c 3f a9 c6 86 3f 40 80 7a 3f
       0.9956156 0.9255302 1.0529376 0.97851944
000050 55 21 68 3f 1d a6 87 3f a4 27 83 3f c0 dc 71 3f
       0.9067586 1.0597569 1.0246472 0.9447746
000060 17 8a 81 3f 18 66 6e 3f 4e 3b 83 3f 9f e9 7e 3f
       1.0120267 0.9312453 1.0252473 0.9957523
000070 d9 ef 80 3f 80 9d 6c 3f 3f e4 80 3f ce 1d 81 3f
       1.0073196 0.92427826 1.0069655 1.0087221
000080 5a e9 7d 3f 24 ed 86 3f 97 2b 80 3f 04 24 82 3f
       0.9918419 1.054112 1.0013303 1.0167241
000090 b7 65 7d 3f 66 a6 84 3f aa 36 84 3f c7 dd 81 3f
       0.9898333 1.0363281 1.0329182 1.0145806
0000a0 54 ca 74 3f d9 a4 79 3f 58 db 67 3f 24 7c 7c 3f
       0.9562123 0.9751716 0.90569067 0.98626924
0000b0 46 c6 8b 3f c8 bc 83 3f 9f 62 66 3f ba 6c 79 3f
       1.0919883 1.0291986 0.89994234 0.9743153
0000c0 e4 96 83 3f 31 c7 76 3f 71 a7 65 3f ba 17 7d 3f
       1.0280423 0.9639769 0.8970862 0.9886433
0000d0 a9 e9 82 3f bc 66 7c 3f 8d 0d 7c 3f 5f 23 70 3f
       1.0227557 0.9859426 0.98458177 0.9380397
0000e0 90 29 78 3f ef a8 81 3f 13 f7 85 3f fc 96 81 3f
       0.9693842 1.012968 1.0466026 1.0124202
0000f0 6f 09 83 3f 2c 9d 82 3f fe 42 8f 3f 52 02 75 3f
       1.0237254 1.0204215 1.1192319 0.95706666

bn2.bias f4 [64]
000000 e6 bd ba 3d 60 3b ca 3d 6e 6b 3f bd 87 4d 55 be
       0.091182515 0.09874606 -0.046733312 -0.20830356
000010 1d d3 0c 3e 7e 8b a0 bc 51 5b b5 bd b0 d4 6f bd
       0.13752408 -0.019597765 -0.08855308 -0.058552444
000020 5b 8d 43 3e cf 6e 3a bd 66 a9 80 3c 09 7a 00 3e
       0.19096892 -0.04551583 0.015705775 0.12546553
000030 83 34 51 3c 3e 9c df 3c 67 f3 bc bd b2 7a 55 bd
       0.012768867 0.027296182 -0.09226113 -0.052118964
000040 01 9c 1c be 23 69 5d bb c6 64 6f 3d c9 89 5c 3d
       -0.15293886 -0.003378459 0.058445714 0.05384234
000050 68 8d 0a be 5b d6 2a bc f9 9b 50 3d eb 9b 80 3c
       -0.13530505 -0.010427083 0.050929997 0.015699347
000060 f1 11 26 be db 10 16 be 3e d3 a4 bd d3 f7 83 3d
       -0.16217782 -0.14654867 -0.08048104 0.06443753
000070 c7 2a 0a bd e1 a6 e5 bc a4 5d 52 be 61 0d 44 3d
       -0.033732202 -0.028033676 -0.20543534 0.04786432
000080 a3 5a 3d 3c ce 6e e6 bd eb 98 5b bd 50 5f 98 bd
       0.011557254 -0.11251603 -0.05361263 -0.074400544
000090 02 bf 9f bd 29 37 5e 3d c2 fa 61 3d 67 56 ed 3d
       -0.07800104 0.054251824 0.055170782 0.115887456
0000a0 64 69 77 3d 17 f6 1d bc 26 74 a6 bd 30 24 96 bd
       0.060403243 -0.009641192 -0.08127622 -0.07331121
0000b0 31 df ba bd c5 58 d8 bd 49 88 6a bd ad 3f ee 3d
       -0.09124602 -0.105638064 -0.057258878 0.11633239
0000c0 93 13 a8 3c 93 f1 f1 bd a1 d8 d4 bc 8e c0 2a be
       0.020517146 -0.11813655 -0.025982203 -0.16675016
0000d0 e6 93 de bc de cc 6a bd e7 1d 58 3d 32 11 5e 3d
       -0.027170133 -0.057324283 0.052762892 0.054215617
0000e0 a6 2c 80 bd 02 31 ac bd b9 82 88 bd 05 f0 44 bc
       -0.06258516 -0.08407785 -0.06665558 -0.012020116
0000f0 27 1d 0d 3e 97 05 b8 bc 87 43 64 3d 2f 48 a2 bc
       0.13780652 -0.022463603 0.05572846 -0.01980981

bn2.running_mean f4 [64]
000000 c9 2a 15 3f e8 94 ee 3e a4 e3 18 3f 89 cf d7 3e
       0.5826841 0.4659798 0.5972235 0.42150524
000010 32 5b 18 3f 5f ca f6 3e a5 52 12 3f c0 9c 06 3f
       0.59514153 0.48201272 0.57157356 0.5258293
000020 3c 81 11 3f c7 e6 17 3f c8 14 02 3f db 8f 0a 3f
       0.5683782 0.59336513 0.5081296 0.54125756
000030 57 8a 0b 3f 6a 79 0f 3f 7e 4c da 3e d8 24 21 3f
       0.54507965 0.5604464 0.42636484 0.62946844
000040 4b 14 e9 3e 9a 5a 00 3f 13 85 1b 3f 54 d4 0c 3f
       0.45523295 0.50138247 0.6074993 0.55011487
000050 f0 b1 09 3f b9 09 16 3f d2 6c ff 3e 98 db e9 3e
       0.53787136 0.58608586 0.4988771 0.4567535
000060 a3 e8 04 3f dc b2 1b 3f 5f 0a 10 3f 0d a8 14 3f
       0.51917475 0.6081979 0.56265825 0.58068925
000070 f0 fb e1 3e 52 ac c7 3e ab e5 f8 3e 29 f1 e6 3e
       0.44137526 0.38998657 0.48612723 0.45105866
000080 62 a9 20 3f 14 e5 c3 3e 0d 54 10 3f 48 ee f8 3e
       0.6275846 0.3826071 0.5637825 0.48619294
000090 66 a2 14 3f d7 5c 11 3f 99 a1 1e 3f f6 79 06 3f
       0.580603 0.5678229 0.6196533 0.5252985
0000a0 9a de dd 3e fa d6 fb 3e f4 ba 1e 3f 0f 4b d7 3e
       0.43333894 0.49187452 0.6200402 0.42049453
0000b0 5d cc 1c 3f 90 a0 02 3f ba de ef 3e ef 9e 37 3f
       0.61249334 0.5102625 0.46849614 0.7172689
0000c0 b3 1b dd 3e 5f 78 d6 3e 26 06 df 3e 6a e2 29 3f
       0.43185195 0.4188871 0.43559378 0.66361105
0000d0 5e 8d 08 3f 92 bb e7 3e c4 56 0f 3f e0 c2 f1 3e
       0.5334071 0.45260292 0.5599177 0.4721899
0000e0 a4 9c f1 3e 1b d8 1a 3f 38 dd 05 3f 5c ce 10 3f
       0.4718982 0.60486 0.5229068 0.5656488
0000f0 96 dd 0e 3f 2e 81 1b 3f ce a3 11 3f e2 e8 fb 3e
       0.55806863 0.6074399 0.5689057 0.49201113

bn2.running_var f4 [64]
000000 a0 d6 4a 3f e0 75 19 3f ba 8a 3b 3f d2 57 dc 3e
       0.7923374 0.5994549 0.73258555 0.43035752
000010 a4 bf 52 3f 5a 43 01 3f a9 df 2b 3f 59 cd 2a 3f
       0.8232367 0.50493395 0.67138153 0.66719586
000020 9b 12 50 3f 66 15 68 3f 91 af ea 3e d1 a7 15 3f
       0.8127839 0.9065765 0.45837072 0.5845919
000030 f5 b8 24 3f 30 f0 33 3f 64 39 d5 3e 20 c7 4c 3f
       0.6434472 0.7028837 0.41645348 0.7999134
000040 6f f8 d8 3e 66 6c 16 3f 12 fd 46 3f 55 f5 26 3f
       0.4237704 0.5875915 0.77729905 0.65218097
000050 3d 4a 01 3f d3 e7 43 3f 6f d7 19 3f 2e 48 d9 3e
       0.50503904 0.7652561 0.6009435 0.4243788
000060 ba 49 66 3f b6 ea 2d 3f bf 64 20 3f 00 ab 2e 3f
       0.8995625 0.67936265 0.62653726 0.68229675
000070 63 4a 00 3f 23 e1 c2 3e cb 85 22 3f d0 b1 13 3f
       0.50113505 0.3806239 0.634854 0.57693195
000080 85 74 56 3f 8d 73 cd 3e eb 92 54 3f 80 0d 30 3f
       0.83771545 0.4012722 0.8303668 0.687706
000090 09 88 39 3f de 11 27 3f 4d 67 41 3f 4f 9d 2f 3f
       0.724732 0.6526164 0.7554825 0.6859941
0000a0 ce 39 f7 3e c8 d0 0f 3f 24 88 50 3f 60 56 db 3e
       0.4828629 0.5617795 0.81457734 0.42839336
0000b0 37 de 2d 3f a2 4d 2c 3f cb d8 20 3f b6 af 75 3f
       0.679172 0.6730596 0.628308 0.9597124
0000c0 17 44 e9 3e 79 c6 b9 3e 86 ba 07 3f a5 34 6b 3f
       0.4555976 0.36284235 0.5301899 0.91877204
0000d0 4e c2 47 3f 1c e2 09 3f 32 5c 73 3f 60 b5 0e 3f
       0.7803086 0.5386064 0.95062554 0.55745506
0000e0 08 e3 21 3f 3c f5 1d 3f da b0 eb 3e 6c c8 25 3f
       0.6323705 0.6170232 0.46033365 0.64758945
0000f0 8b fe 42 3f 9e 78 30 3f 2b 5c 3d 3f 5f 01 22 3f
       0.7616965 0.6893405 0.7396876 0.6328334

fc3.weight f4 [32, 64]
000000 7f ac bb 3d 6e f0 27 3e bb fa 4b bd 7a 2c b3 bc
       0.091637604 0.1640031 -0.049799662 -0.021871794
000010 c6 ac 05 3c 47 7f ad ba cc 2c 03 3d ab fd a4 3d
       0.008158868 -0.0013236784 0.032025144 0.08056196
000020 8a ef d3 3c 53 41 ae 3d fc fc 2d 3d b1 5a 28 bd
       0.025871057 0.08508553 0.042477593 -0.041102115
000030 e6 56 eb 3d 03 d8 02 3e 83 70 61 3e ca 06 fa bb
       0.11491184 0.12777714 0.22015576 -0.007630204
000040 95 2c 37 bd ed 0d 53 bd c9 48 21 3e 8a d2 6d 3d
       -0.04472025 -0.051526953 0.15750422 0.058062114
000050 2c 3a 35 bc b0 03 3d bc 51 60 09 3d 4f 0c 5a bc
       -0.011061233 -0.011536524 0.03353912 -0.013308599
000060 05 c8 be bd fe 7e 7a 3d 35 97 83 3d 08 ba 4e 3d
       -0.093154944 0.061156265 0.06425325 0.050470382
000070 26 1a 9e 3c 85 64 d2 bd 3d 65 0b be 89 45 f5 bd
       0.019299578 -0.10273079 -0.13612838 -0.119761534
000080 e3 f6 8e bd c6 e2 4d 3c b5 fa 87 bd 37 b2 21 be
       -0.06980684 0.012566274 -0.066396154 -0.1579064
000090 1c 50 af 3d e5 2f 81 3d bc 9f 78 3d ae bd dc bd
       0.085602015 0.06307963 0.06069921 -0.10778366
0000a0 87 fa c4 bc 00 1a 56 bd eb 49 9a 3c 42 e8 04 be
       -0.024045242 -0.05227089 0.018834075 -0.12979224
0000b0 48 48 99 bc 4f 8a 56 bd 61 db 90 bc f2 dd ae 3d
       -0.018711224 -0.052377995 -0.017682733 0.085384265
0000c0 98 1d 3f 3d 6d 0a 66 bd b5 dc b6 bc 32 79 24 3b
       0.046659082 -0.056162287 -0.022322038 0.0025096652
0000d0 42 1c 32 bd 53 f8 aa bc 7f f3 0a 3e eb 42 5b bd
       -0.04348398 -0.020870363 0.13569449 -0.053530615
0000e0 09 02 e4 3c 58 be 0b be 4a ef 26 3d ce 72 49 3e
       0.027833002 -0.13646829 0.040755548 0.19672701
0000f0 5e b1 10 3e bf 3e 70 3c 1a 81 b1 3c d5 ee a4 bc
       0.1413016 0.014663397 0.021668006 -0.020133415
000100 9d 77 96 3d 36 68 b5 3d ca 93 92 3d 7e 61 fb bd
       0.07347033 0.08857767 0.07157095 -0.122744545
000110 69 af 05 bc ed 8a 88 3d a8 d6 fd bd 35 b1 bb bd
       -0.008159497 0.06667123 -0.12394458 -0.09164659
000120 d1 1d bc 3d 00 26 96 3d 86 6a 3d 3d 3c f5 56 bd
       0.091853745 0.07331467 0.046244167 -0.052479967
000130 79 27 cd bd a7 c9 22 3d f6 bf 33 be 8f 2e 56 be
       -0.100172944 0.039743092 -0.17553696 -0.20916198
000140 68 43 45 bd 4e 18 1a 3d 1e 78 80 bd 43 88 1f be
       -0.048159987 0.037620835 -0.062729105 -0.15579323
000150 b8 96 86 bd 0e b7 a5 bd a9 ea 59 be 90 d4 1c be
       -0.06571716 -0.080915555 -0.21280922 -0.15315461
000160 e2 ef 13 be 39 70 41 3d 8c 8f 84 3d ab 8b e4 3d
       -0.14446977 0.047226164 0.06472692 0.11159452
000170 f9 e9 64 bd 79 3c 52 3d 1b e7 c6 3b d1 e8 1c bd
       -0.055887196 0.051327202 0.0060700304 -0.03830797
000180 86 19 16 bd 5e 95 1c 3d 92 06 94 3d c0 86 ab bd
       -0.036645435 0.038228385 0.07227816 -0.08375311
000190 6f f8 cd bd 1e a5 fa 3b 8b 75 d0 bd 3d 1e 63 3c
       -0.100571506 0.007649078 -0.101786695 0.01386219
0001a0 bf ee c3 bc 85 f3 7f 3d a6 22 12 bb 76 4c f0 3d
       -0.023917554 0.062488098 -0.0022298484 0.11733334
0001b0 f7 4c 84 bc 82 62 8e bd 06 3e cc bc 03 7d 75 3d
       -0.016149981 -0.069523826 -0.024931919 0.059933674
0001c0 48 44 0e 3e 46 a5 e5 bd 94 04 f8 bd fe 88 82 3d
       0.13893235 -0.11213164 -0.12110248 0.063737854
0001d0 9e c1 c3 bd c8 26 85 bd 0a ad 3e bc f7 4f d2 bb
       -0.09558414 -0.065015376 -0.011637935 -0.006418224
0001e0 55 97 b6 bd d2 ca 99 3d 66 88 1b be e3 0f 96 bb
       -0.08915583 0.07509388 -0.1518875 -0.0045795306
0001f0 72 e3 fc 3c c6 a5 d0 bc 38 37 04 3e f1 8b db bd
       0.030870173 -0.025469672 0.1291169 -0.10720051
000200 b1 89 0c be ab d4 14 be 43 1b 51 ba 31 ee 8d 3d
       -0.137244 -0.14534251 -0.00079767796 0.06930197
000210 20 dd 2e 3d 94 77 a3 3c e3 14 41 bd b0 96 ae bd
       0.04269135 0.01995448 -0.04713906 -0.08524835
000220 d3 65 15 be d9 38 8c bd 25 f2 a1 bd 0c f2 bd 3d
       -0.14589624 -0.0684678 -0.079075135 0.092746824
000230 ed 7c 31 3e 42 2a 4d bd 1c 2c d2 bc c8 a5 3c 3e
       0.17332812 -0.05008913 -0.025655799 0.18422616
000240 de fe af bd 9d 92 a0 bc c7 e3 05 3e a7 f1 7b bd
       -0.08593534 -0.01960116 0.13075171 -0.061509755
000250 8c 55 24 3d e8 15 05 3c 28 72 a1 3d ba e3 ae bd
       0.040120646 0.008122899 0.07883102 -0.08539529
000260 00 7c 0e 3d 17 d0 bf 3c 23 4d d7 3c ee db 43 3d
       0.034786224 0.023414655 0.026281899 0.047817163
000270 fd 74 14 3e 97 bb 1b bb c9 43 af bd 9c 05 16 be
       0.14497752 -0.0023762935 -0.08557851 -0.14650577
000280 f3 5e 36 bd c7 08 10 3d 84 2f b0 bd ba 30 9b bc
       -0.044524144 0.03516462 -0.08602813 -0.018944133
000290 bd 27 89 bd 91 f9 d4 3d f6 8d 0f be 1b a0 06 3d
       -0.066970326 0.103991635 -0.14018998 0.032867532
0002a0 1a eb 6f bd f0 7c 19 3e 48 31 05 bd b8 4f 36 be
       -0.05857382 0.14989066 -0.0325177 -0.17803848
0002b0 75 68 99 3d 20 6e f7 bd 1b 33 8d 3c 1c 47 c6 b8
       0.07490627 -0.120815516 0.017236283 -9.454621e-05
0002c0 de b7 20 be fd d5 9e 3d 1d 79 f4 3d 13 ac 95 bd
       -0.1569514 0.07755659 0.11937163 -0.07308211
0002d0 95 c5 d3 3d d0 75 c3 3d 85 38 3c bd cb 91 8f 3d
       0.1034042 0.09543955 -0.04595234 0.0701023
0002e0 e1 9f 2a 3d a1 ee 13 bd ab ab 49 bc 17 dc cd bc
       0.04165638 -0.036116246 -0.012308995 -0.025129361
0002f0 b6 a4 e4 3d bc 99 95 bd 6a 9d 92 ba bd c3 d1 3b
       0.111642286 -0.07304713 -0.0011185829 0.0064015076
000300 8d 0d d6 3d 4e cf 8f 3d dc af 04 3e 57 4c 74 bd
       0.10451803 0.07021962 0.1295771 -0.059643116
000310 d5 be 1d bd fa 6d fa bd 43 63 3f 3d 02 33 16 3d
       -0.03851207 -0.122280076 0.046725523 0.03666974
000320 8e 74 73 3d 58 a1 52 bd ae 5b e8 bc 77 78 03 bd
       0.059437327 -0.0514234 -0.028364029 -0.032097306
000330 24 ac 14 be 25 9f 16 bd 3c 63 9f bc 3b 6f ae bd
       -0.14518791 -0.036772866 -0.019456498 -0.08517309
000340 de 17 82 bc 8c 08 cb 3d cc 48 89 bd 10 ed ad bc
       -0.015880521 0.099137396 -0.06703338 -0.021231204
000350 9c e6 33 3d 6a 70 1b 3e e8 cd 14 bd 27 5b 52 3d
       0.043921098 0.15179601 -0.03632918 0.05135646
000360 ca cc 8d 3b 0f 00 95 bd 39 69 1a be af e1 2f bd
       0.0043273913 -0.07275402 -0.15079202 -0.042939838
000370 88 5b 93 3d 77 ca de bc 7b b9 2c be cd aa 9b 3d
       0.071951926 -0.027196152 -0.1686763 0.07600937
000380 89 bb f1 bd 17 8a d8 bc e9 ee 0e 3e 9c e6 8c bc
       -0.118033476 -0.026433034 0.13958324 -0.017199807
000390 a8 c7 d5 3d db 80 3e bd 7a 73 54 3d ea 10 1c 3e
       0.10438472 -0.046509605 0.05186794 0.15240827
0003a0 a4 14 88 3d 2f 5d f8 3c 74 67 2c bd 22 61 52 3d
       0.06644562 0.03031787 -0.042090848 0.051362164
0003b0 1a 0c 51 be d0 d8 ff bd 10 08 40 bd 27 52 1f bd
       -0.20414773 -0.124925256 -0.04688269 -0.038896706
0003c0 97 31 09 3d 72 63 5e bd f4 64 56 bd 7f f3 7e bd
       0.03349456 -0.054294057 -0.05234237 -0.062243935
0003d0 a5 81 f9 bd 30 cf d3 3d 88 a8 e1 3c 6f dd 78 3c
       -0.12182931 0.10342252 0.027546182 0.015189513
0003e0 b6 b8 b3 3d a4 bd 16 bd b9 44 11 3d f2 0e 66 bd
       0.08775465 -0.03680195 0.03546593 -0.056166597
0003f0 2d 5a 9e 3d 1f 24 e8 bd 5d 3a f0 bd 12 8d 54 bd
       0.077320434 -0.113350146 -0.11729882 -0.051892348

fc3.bias f4 [32]
000000 ec 5d a6 3d a4 b0 a0 3d d9 91 01 3e 60 5c 0a 3d
       0.08123383 0.078461915 0.12653293 0.033779502
000010 cc da 1f 3e f4 3e 42 bd 32 c3 80 3d 33 21 8d bd
       0.15610808 -0.047423318 0.062872306 -0.06891098
000020 70 17 1c bd 3b c6 e4 3d 10 7d 16 3e e0 7c 83 3e
       -0.03810829 0.11170622 0.14696145 0.2568121
000030 b6 9d 14 be d6 f3 3f 3e 85 c1 82 3e d0 7b 01 be
       -0.14513287 0.1874536 0.2553827 -0.12644887
000040 7d 14 3d 3d 3e 99 af bc 52 ab a8 3d c9 35 93 3d
       0.046162117 -0.021435376 0.08235802 0.07187993
000050 a7 96 fc 3a 3e e2 1d 3e 87 4f 1d 3d 49 28 34 ba
       0.0019270972 0.15418336 0.03840592 -0.0006872458
000060 df ce 37 bd 4b 48 ed 3d f7 4d 6f 3d b3 25 00 3e
       -0.044875022 0.115860544 0.058423962 0.12514381
000070 49 bf 08 3e 8b 74 cc bd aa 30 10 3e ab 96 b9 ba
       0.1335422 -0.09983166 0.14081064 -0.0014159282

bn3.weight f4 [32]
000000 d6 af 6b 3f c4 0d 63 3f e8 a1 71 3f 66 ac 8a 3f
       0.9206518 0.8869288 0.94387674 1.0833862
000010 83 61 84 3f af b9 79 3f 6c 89 87 3f a4 a0 79 3f
       1.0342258 0.97548956 1.0588813 0.97510743
000020 92 13 64 3f 4f 85 84 3f c4 4e 86 3f 32 95 82 3f
       0.8909236 1.0353183 1.0492787 1.0201781
000030 3d 7f 80 3f 26 68 81 3f 7b 30 80 3f 0b e0 76 3f
       1.003883 1.0109909 1.0014795 0.9643561
000040 47 45 8a 3f 4c e2 97 3f a1 58 8a 3f 09 96 83 3f
       1.0802392 1.1865935 1.0808297 1.0280162
000050 7e a1 72 3f 86 12 83 3f 5d df 7a 3f 8d 19 6e 3f
       0.9477767 1.0240028 0.97997075 0.9300774
000060 00 15 6e 3f ce e4 80 3f cd b5 77 3f 24 d4 81 3f
       0.93000793 1.0069826 0.9676178 1.0142865
000070 bb 1f 6b 3f f4 2e 70 3f 15 d0 5e 3f b5 80 5d 3f
       0.9184529 0.93821645 0.8703626 0.86524516

bn3.bias f4 [32]
000000 84 3c 89 bd 3e 88 64 be 81 70 96 bd 44 28 df bc
       -0.067009956 -0.22317597 -0.07345677 -0.02724088
000010 00 00 2e 3d 0e 30 00 3d 31 4f 2c be 5a 2c 2e be
       0.04248047 0.03129583 -0.16827084 -0.17009106
000020 5d 10 7c 3e 91 34 21 be 31 c9 03 bc 53 15 fc be
       0.24615617 -0.15742709 -0.008043573 -0.4923502
000030 d0 4f 29 3e e0 4d 06 bd 45 dd 19 3e 94 59 42 3e
       0.16534352 -0.03278911 0.15025814 0.18979484
000040 cc 99 93 bd 5e 08 80 bc df 68 c5 3d 67 b7 5d be
       -0.07207069 -0.01562899 0.09639143 -0.21651994
000050 f0 30 63 be a7 65 52 3d 23 63 c6 3d ec 0a 56 bd
       -0.22186637 0.051366474 0.096868776 -0.05225651
000060 4a f5 9a 3d 77 b4 9b be b2 8b 5a bc 5a 80 8b bd
       0.075663164 -0.3041112 -0.01333897 -0.068115905
000070 43 3c 20 bd 84 d4 35 bc 4d 52 af bc 01 1e 9f bd
       -0.03911997 -0.011098031 -0.021401549 -0.07769395
